submission/tflite/model.tflite (tflite, 903496 bytes, 8 tensors)

arith.constant f4 [64]
000000 64 4b 97 3b bc 54 b8 bc b7 5f 0f bd bc 6f c1 3c
       0.0046171416 -0.022501342 -0.03500339 0.02361285
000010 ed 48 de bc 2f 5f 4f bc db 24 5d bd b9 3c c9 bc
       -0.027134383 -0.012656971 -0.053990226 -0.024565088
000020 2c 25 d6 39 84 88 06 bd 27 40 64 bc 08 98 97 bd
       0.00040844956 -0.032845035 -0.013931311 -0.074020445
000030 b4 f9 4b bd b4 11 87 bc 29 96 87 bc 5b 25 ea bc
       -0.049798682 -0.016487934 -0.016551094 -0.028582266
000040 fd 1d 99 3c 86 0d 0c 3d 66 87 32 bd ba bc d1 bc
       0.018691057 0.034192584 -0.043586157 -0.025602687
000050 1e f2 19 bd 54 b0 03 3c 27 4e f8 3c a3 8d 13 bd
       -0.037584417 0.008037645 0.030310703 -0.036023747
000060 7d 5b 02 bd d9 66 dd bc 0a e2 80 bc 00 d1 6f bc
       -0.03182553 -0.02702658 -0.015732784 -0.014637232
000070 32 af c3 3a ba 07 b0 bc bd 2a ec bc 8e 8a 0b 3d
       0.0014929532 -0.02148806 -0.028828973 0.034067683
000080 80 3d 13 bd f4 a1 56 3d 53 dd 2f bd e8 d7 49 bd
       -0.035947323 0.052400544 -0.04293568 -0.04927817
000090 e8 71 05 bb ad a2 1e bd aa ef c7 3c c3 ed 2f bd
       -0.0020362083 -0.03872936 0.024406273 -0.042951357
0000a0 49 1f 82 bd a4 88 c1 3c 3c 36 fd 3c eb 33 f3 bc
       -0.063536234 0.023624726 0.03090965 -0.029687842
0000b0 cc 93 ea bc 99 df e7 3c 01 f0 42 bd 79 43 2a 3d
       -0.028634928 0.028304862 -0.047592167 0.041568253
0000c0 ca f7 e7 3c f0 3f 03 bd dc 62 21 3d 22 8f 4d bd
       0.028316397 -0.032043397 0.03940092 -0.05018533
0000d0 0a 80 22 bd 0a 39 6d bd cc 73 57 bb a0 94 c1 bc
       -0.03967289 -0.057915725 -0.0032875417 -0.02363044
0000e0 88 f9 b3 bc e8 c7 89 bd 7a db b3 3c 53 71 cc bc
       -0.021969572 -0.06727582 0.02195524 -0.024956381
0000f0 17 ce 5e 3d 7d 18 58 bd 15 23 5d bd a4 db 06 bd
       0.05439576 -0.05275773 -0.053988535 -0.03292431

arith.constant1 f4 [64, 3, 3, 32]
000000 a4 4a d8 bd a1 e7 07 bc b7 62 aa bd 57 ce 9e bc
       -0.105611116 -0.008294971 -0.083196096 -0.0193855
000010 5a 67 d0 bd b8 61 06 be f1 80 78 bd 5f 8c f1 bc
       -0.10175963 -0.13123214 -0.060669843 -0.02948588
000020 b8 86 57 bd 32 bd 9f bd 8c ee 9a bd 46 1c fc bd
       -0.052618712 -0.07799758 -0.075650305 -0.1231008
000030 e7 d9 17 3c 60 0d 19 bc 53 4e eb bb 50 55 57 bd
       0.009268261 -0.009341568 -0.007180968 -0.052571595
000040 f4 6a 77 bd 90 3e 2d 3d c0 6d 8f bd 7f 4b 84 bd
       -0.060404733 0.042295992 -0.07003355 -0.06459712
000050 ce ef d9 bd 3f 5b 48 bd df 34 2e be 60 36 2e bc
       -0.10641442 -0.048915144 -0.17012356 -0.010633081
000060 9e fc 8d 3d eb 91 20 bc 46 13 57 3d 05 5b 35 bd
       0.069329485 -0.009800415 0.052508615 -0.044276256
000070 42 fd 66 bd da d5 d8 bd e1 be cb bd ee f1 76 bd
       -0.05639387 -0.10587664 -0.09948517 -0.060289316
000080 4d 6f 02 be d7 9b 08 bd 54 9e 1b 3c 06 27 08 be
       -0.1273777 -0.033351745 0.009498198 -0.13296136
000090 3d 7d d0 bd 5e 67 e2 bc 45 f2 87 3b a8 dc b9 bd
       -0.10180137 -0.02763718 0.004148754 -0.0907529
0000a0 ce 90 fd bd e8 f1 82 bc de f9 08 bd a8 47 bb bd
       -0.12381135 -0.01598449 -0.033441417 -0.09144527
0000b0 98 88 06 be 7f 06 07 be 92 c2 08 3d 08 5a 72 3d
       -0.13138044 -0.13186072 0.03338868 0.05916789
0000c0 a9 72 e9 bd a2 ea 84 bc c6 99 80 bd cf 7e c4 bc
       -0.11398823 -0.016225163 -0.0627933 -0.023986248
0000d0 27 ec d6 bb b2 5c 2c 3d da ce 01 bd 3e 95 2d 3d
       -0.0065589133 0.04208059 -0.03169141 0.042378657
0000e0 53 b9 3e 3d e1 19 94 bd 2b d8 10 bd f3 b0 a5 3d
       0.046563458 -0.072314985 -0.035362404 0.08090391
0000f0 ef b7 2b bc 69 13 02 bd fb 69 61 bd cc cb 08 3d
       -0.010480865 -0.031756792 -0.05503271 0.03339748
000100 a0 93 76 bd 3e 6a 4d bc 34 b5 99 3d 9b 6f 88 bd
       -0.06019938 -0.012537537 0.07505265 -0.06661912
000110 27 75 e7 3c c5 98 80 bd 8c df f1 3d 29 eb f0 bd
       0.028254105 -0.062791385 0.11810216 -0.11763603
000120 d0 7e de bd fb 69 98 3d cd 7d 27 bd 08 5b bc bd
       -0.10864031 0.07442089 -0.040891457 -0.0919705
000130 d5 41 77 3c 38 e5 14 3d f9 a9 ea bc d7 d6 52 bc
       0.015091379 0.036351413 -0.028645502 -0.012868605
000140 e7 e1 16 3c 4c 42 29 bd e3 4b 9e bd f9 15 e1 bc
       0.009209133 -0.04132299 -0.07729318 -0.027476298
000150 ff e1 2c bc 6e 9c 14 bd 0f 0f b2 3c 61 50 ef 3c
       -0.010551929 -0.036281995 0.021735696 0.029213132
000160 42 62 c6 3d 4b 02 de bd 08 5f 6f 3d 54 af d5 3c
       0.0968671 -0.10840281 0.05844024 0.02608458
000170 08 c7 28 bd 16 17 46 3d 5e ab ec bd 16 94 c0 3c
       -0.041205436 0.04836186 -0.11556123 0.023508113
000180 24 0f 23 bd 26 15 8c 3d 4c e7 8b bd cc 65 37 be
       -0.03980936 0.06839971 -0.06831226 -0.17909926
000190 56 3b 2e bd f0 b3 25 bd 80 05 e4 3a 75 be c7 3d
       -0.042537056 -0.040454805 0.0017396659 0.09753124
0001a0 e2 82 18 be a4 d3 e7 bd 69 0d 0e be 0b 0d 01 3d
       -0.14893678 -0.11319664 -0.13872303 0.03150658
0001b0 21 25 96 bc bc 19 8a bd bf 01 92 3c bd 05 5a 3c
       -0.018328251 -0.0674319 0.017823098 0.013307032
0001c0 6e ea d6 bc 5b 7c d5 bd 8f ee ff 3c de ca 83 bd
       -0.026234832 -0.104241095 0.031241683 -0.06435178
0001d0 f1 b8 f8 bc a2 d0 3b bd 94 88 2c bd 43 42 d4 bb
       -0.030361624 -0.045853265 -0.04212244 -0.0064776256
0001e0 33 0a a5 bc b6 d3 2c be 69 ac a3 bd 4e 18 84 3b
       -0.020146465 -0.16877636 -0.07991869 0.0040312177
0001f0 c5 94 84 bd 6d 4c 86 3c c3 d7 7c bd e9 e4 7e 3d
       -0.06473688 0.016393865 -0.061729204 0.062230024
000200 76 59 9e bd b8 77 3c bd 31 7c c8 bd 3a 41 20 be
       -0.07731907 -0.04601261 -0.09789313 -0.15649882
000210 5d c5 14 bd e0 a5 ce bd de 40 17 be ce 15 bd bd
       -0.036321033 -0.10090232 -0.14770839 -0.092326745
000220 90 f9 0e be 4f 55 db bd 03 db a2 bd d3 40 a5 bd
       -0.13962388 -0.10709631 -0.079519294 -0.08069005
000230 20 bb 84 bd 77 eb 02 bc 84 10 1d be 81 b9 84 3d
       -0.06481004 -0.0079907095 -0.15338331 0.064806946
000240 7f f5 2b bd 9d 8b 0f be fc ac 3f 3d 0c 6a 1c 3c
       -0.04198217 -0.14018102 0.04679583 0.009546768
000250 cb 13 a0 bd 44 4c ae 3c 59 2a eb bc ca ba a8 bd
       -0.07816275 0.0212766 -0.028706716 -0.08238752
000260 79 84 e3 bc 8c 27 a1 bd 5e 9d 3e bc 43 75 ca bd
       -0.027773129 -0.07868871 -0.011634199 -0.09885647
000270 1c 46 ae ba 17 70 af 3c f4 3b 9a bd f4 09 42 3d
       -0.0013296041 0.021415753 -0.075309664 0.047372773
000280 f1 15 94 bd 0d 0c ad bd da 2a aa bd c4 58 d8 bd
       -0.072307475 -0.08449564 -0.083089545 -0.10563806
000290 67 4c c6 bc 0c f6 8e bd a0 50 15 be 02 a7 82 bc
       -0.024206353 -0.069805235 -0.14581537 -0.015948776
0002a0 56 ea dc bd 41 d5 3e bd c8 ae 35 3b 95 d8 c2 3b
       -0.107868835 -0.046590094 0.0027722586 0.0059462287
0002b0 f1 01 64 ba b6 97 af 3d 99 39 7b bd b3 a2 00 3d
       -0.0008697799 0.085738584 -0.061334226 0.031405162
0002c0 a3 a9 09 bd ca 6e c0 3b c0 27 de b9 dc eb c1 bd
       -0.033609044 0.005872582 -0.00042372756 -0.09468815
0002d0 ac 1d 8f bd da 4b 18 be 96 9b 91 3d 75 e2 06 be
       -0.06988081 -0.14872685 0.07109754 -0.13172324
0002e0 de 29 16 be e0 c3 90 bd 52 d3 ab bd 7d 09 5e bd
       -0.14664409 -0.0706861 -0.083899155 -0.054208267
0002f0 9b 2b 59 bd 8b 80 10 3d 18 1c 15 bc d3 39 0b 3e
       -0.0530201 0.035278838 -0.009100936 0.13596277
000300 45 ef 9a 3d 13 90 95 3d 67 83 e9 bb b6 ef 36 be
       0.07565168 0.073028706 -0.00712626 -0.1786488
000310 db c6 09 3d 84 56 cc 3d 58 8e b1 bd 43 2a a5 3d
       0.03363691 0.09977439 -0.08669728 0.080647014
000320 55 a9 2f be bb 29 e9 bc a0 39 9a 3d 18 a1 f3 3d
       -0.17154439 -0.028462281 0.07530522 0.118959606
000330 9f 45 3f 3d 02 4d bb 3d 9a 4f ce bb 21 17 8e 3d
       0.046697255 0.091455474 -0.0062961103 0.06938005
000340 13 2d 24 3d 7e 53 20 3d b2 be 96 3c c1 48 c1 3c
       0.04008205 0.039142124 0.018401477 0.023594262
000350 81 f7 94 3d 13 c0 bc bd f0 8f 9e 3c 15 8e a4 bd
       0.0727377 -0.09216323 0.019355744 -0.080349125
000360 bf e7 89 bd 90 5c cd bd 4b c5 9b 3b e3 d2 5c 3d
       -0.06733655 -0.100274205 0.0047537438 0.053912055
000370 ee 32 4a 3c 59 ff ad 3d 40 0b 3f bd 0a 74 c6 3d
       0.012341244 0.08495969 -0.04664159 0.096901014
000380 2b 6d 07 3a c8 90 b7 3d 3d 71 99 bd a8 1b a0 be
       0.00051661086 0.08963162 -0.074923016 -0.312711
000390 21 fc fb 3d c1 9c 55 3c 9a 94 ba bc ef 63 74 3d
       0.12303949 0.013037861 -0.022775937 0.059665617
0003a0 fa 82 ea bd bf 7e 97 bd 1d b5 5b bd f5 f9 04 3c
       -0.11450763 -0.07397222 -0.05363952 0.008116235
0003b0 9e 6d 1c 3d ac 74 5b 3d ab 57 d4 3c eb 06 87 3d
       0.038190477 0.053578064 0.02592071 0.065931164
0003c0 f2 59 b3 3d 3e b9 0b be 28 e1 c0 bc 93 3e 83 3d
       0.0875739 -0.13644883 -0.023544863 0.064084195
0003d0 79 96 33 3d ef c8 9b bd 78 da 39 bd 28 a0 66 bd
       0.043844674 -0.076066844 -0.045374364 -0.05630508
0003e0 44 79 8b bd aa 1f 69 bd a5 fd f9 bd 1d 32 ec ba
       -0.06810239 -0.056914963 -0.12206582 -0.0018020306
0003f0 da 99 00 3d 5d f5 26 bd c2 8a 5d 3c d4 b5 f9 3d
       0.031396724 -0.04076134 0.013521852 0.12192884

arith.constant2 f4 [10, 128]
000000 f8 a0 4f 3e 95 b3 06 3e 43 c7 19 be d1 dd f3 3d
       0.20276248 0.13154443 -0.15017419 0.119075425
000010 19 b4 c5 3c b4 6a 98 bd c0 74 69 be 43 de d9 3d
       0.024133729 -0.07442227 -0.22798443 0.10638096
000020 11 26 91 3d c4 1d 0b be 1c ed be bd 82 aa 1d be
       0.07087339 -0.13585573 -0.09322569 -0.15397075
000030 ff 9a 1b be be 17 62 be 35 f5 27 bd bd 2d 0a be
       -0.15195845 -0.2207937 -0.041005332 -0.1349401
000040 cc 1a 0c 3e 9f 97 8f be 05 37 e4 3d ce 9b 75 bc
       0.13682097 -0.28045365 0.11143307 -0.01499076
000050 2e 73 ca 3d bb da d5 3c 32 52 62 be 56 29 39 be
       0.0988525 0.026105275 -0.22101668 -0.18082175
000060 e8 80 ae bc 03 92 0a be 5d 2f 90 be 25 0b a7 be
       -0.021301702 -0.13532262 -0.28161135 -0.3262569
000070 8c a6 e8 3d b9 ec 33 3e 47 ab 78 3e 47 fd 63 be
       0.11359891 0.17570771 0.24284087 -0.22264586
000080 86 9a af be ee 33 82 3e 3e e0 1a bd 07 f4 67 3e
       -0.3429758 0.25430244 -0.03781151 0.22651683
000090 04 f6 3b 3e 1a 2f 27 3e 27 20 90 3c 55 0b 14 3d
       0.18355566 0.16326562 0.017593456 0.03614362
0000a0 73 ba 33 3e f5 64 09 be 91 7d 19 3e b5 b3 f3 bd
       0.17551593 -0.13417418 0.14989306 -0.11899511
0000b0 aa 75 78 3d ce ca 28 3e 5d bb e1 3c 2e 45 38 bc
       0.06065909 0.16483614 0.027555162 -0.0112469625
0000c0 cf 78 4c 3e 4a 45 7c 3d d5 b1 ca bd 41 82 d0 3d
       0.1996796 0.061589517 -0.098972 0.10181094
0000d0 0f c7 94 bd 6a e6 d6 bd 27 c4 82 bc 37 4f 17 be
       -0.0726453 -0.10493167 -0.015962673 -0.14776312
0000e0 9e e5 ae bd 34 72 10 3c f0 0d 43 3d 43 58 0d bd
       -0.0853989 0.008816291 0.047620714 -0.034508
0000f0 32 ed 23 3d 99 29 e3 3d a5 ba 39 3e e3 d6 36 be
       0.04002113 0.110919185 0.18137605 -0.1785541
000100 b7 5b 9d 3c b2 01 fc bc 8b f1 91 be 9c 88 84 bd
       0.019208772 -0.030762527 -0.28504595 -0.06471369
000110 b2 a4 6d be c3 72 64 be a7 d7 3d 3e 28 8b 12 3e
       -0.23207358 -0.22309403 0.18539296 0.14310896
000120 c5 31 72 3d 85 a8 86 be 6c 01 27 3e 61 e4 2a 3e
       0.059129495 -0.26300445 0.16309136 0.16688682
000130 c6 1e 0c be c5 1e 7b be 91 af 6f be d2 60 3b be
       -0.13683614 -0.24523456 -0.23406817 -0.18298653
000140 f7 ba 1f be 4d cc 32 3e 7b aa af bc 94 f0 30 3e
       -0.15598665 0.17460747 -0.021443596 0.17279273
000150 82 44 35 be a8 e3 14 3c 2d 29 f0 bc 94 84 8e 3d
       -0.17701915 0.009087481 -0.02931651 0.06958881
000160 cc 4c 33 3d ac 40 aa bc f1 74 46 be 30 97 68 bc
       0.04377441 -0.020782791 -0.19380547 -0.014196202
000170 2d f8 98 3d 1a d3 4c 3e b1 0f 1c 3e f7 96 a1 be
       0.07469211 0.20002404 0.15240361 -0.3156049
000180 6b d8 5f be 26 4a 1a bb e6 79 ce bc ea 3a f8 bc
       -0.218599 -0.002354273 -0.02520461 -0.03030153
000190 6a 7e 3a 3e 00 4d 4d 3e 79 53 9e be 90 6c 19 3e
       0.18212286 0.20048904 -0.3092306 0.1498282
0001a0 76 a1 f8 3d d6 1f 1e 3e 28 e8 87 be d0 99 0f be
       0.12140171 0.15441832 -0.2654431 -0.14023519
0001b0 0c 0b 7e be 8f f1 01 be 7d ff 16 3e 57 33 23 3e
       -0.24808902 -0.12689804 0.14745899 0.15937553
0001c0 3b b7 b2 bd 85 42 65 be bf db bc 3d 09 d4 35 3e
       -0.08726355 -0.22388656 0.09221601 0.17756666
0001d0 f5 92 c8 bd 40 51 cb bd 1d ab 2e be 0e 1d be bd
       -0.09793655 -0.099276066 -0.17057462 -0.092828855
0001e0 da 8e 44 3e cf 6e 80 3e e3 f0 05 be 45 20 a8 bd
       0.19195119 0.2508454 -0.13080172 -0.0820928
0001f0 28 c1 16 3e 92 cd 86 bd 65 fc 35 3e 7a 27 06 be
       0.14722121 -0.06582178 0.17772062 -0.13100997
000200 c5 45 57 3e 1f 19 2e be a0 f4 ad bc 7d 9c a0 3c
       0.21022709 -0.1700177 -0.02123481 0.01960587
000210 7b 9b 2e bd e5 e8 ff 3d 7e 14 11 bd 23 31 15 3e
       -0.042628746 0.12495593 -0.035419933 0.14569525
000220 54 b9 b6 3d d9 f3 23 be 2f b0 b3 3d 16 31 4b 3e
       0.08922067 -0.16010989 0.08773839 0.19842944
000230 bd 80 e8 bc 1e 79 a7 3d 6d cd fb 3d 65 f0 af 3d
       -0.0283817 0.08177398 0.12295041 0.085907735
000240 36 d0 30 be 2c 09 cc 3d f4 9d 3a be 42 a3 16 3e
       -0.17266926 0.09962687 -0.18224317 0.14710715
000250 c4 05 89 3e 87 c6 2b be d9 31 89 3d 5d 6a 50 3e
       0.2676221 -0.16774951 0.06698961 0.20353074
000260 d3 3d 61 3e 28 df 83 be f9 49 cd 3c 72 fd 5f 3e
       0.2199624 -0.25756192 0.025059687 0.21874025
000270 39 8b bb bd 63 4b 68 be b5 0c 4b 3e 9e e9 08 3e
       -0.09157414 -0.22685008 0.19829066 0.13370368
000280 27 e7 06 be ae a2 03 3e 68 8f af 3d 5b f2 16 be
       -0.13174115 0.12855026 0.085722744 -0.14740889
000290 8d d1 30 be 8d 43 28 be d4 48 eb 3d 50 7c 43 be
       -0.17267437 -0.16432019 0.114885 -0.1909039
0002a0 84 90 65 be 34 35 8e 3d b1 ee 19 be 13 78 7f be
       -0.2241841 0.069437414 -0.1503246 -0.24948148
0002b0 8a a5 4f be d8 5a a5 3d 66 3b 6c 3e b8 ff 37 be
       -0.20277992 0.08073968 0.23069534 -0.17968643
0002c0 1c 2b 89 be 48 3a fd 3d 4a 3e 06 3e ec f4 47 3c
       -0.26790702 0.12364632 0.13109699 0.01220439
0002d0 f9 30 2f be f4 4b 08 be 78 ca 9a be 8a 04 49 be
       -0.17108525 -0.13310224 -0.30232596 -0.19630638
0002e0 0f 5b b8 bd ea 76 4e be 34 78 51 3e 9c 43 55 3e
       -0.09001743 -0.2016255 0.2045601 0.20826572
0002f0 51 7d 06 be 11 f2 4a 3e 2f f3 16 bc 20 a7 67 3e
       -0.13133742 0.19818904 -0.009213253 0.22622347
000300 65 a8 21 3c 1b ff 0a 3e b5 26 29 be 63 6c 9a be
       0.009866809 0.13573878 -0.16518672 -0.30160818
000310 fd c8 aa bd 58 b3 b3 3d 17 de 11 bd a7 44 36 be
       -0.08339117 0.087744415 -0.035612192 -0.17799626
000320 a2 21 51 be b6 cd 54 3e 2f 3d 14 be 42 6d 1f be
       -0.20422986 0.20781597 -0.14476465 -0.15569022
000330 49 68 ba bd 0d a2 f4 3d 05 ab 83 bd ce 55 9b bd
       -0.09101922 0.11944971 -0.06429104 -0.07584725
000340 9b 46 0b be ee 89 09 be 80 13 46 3e 4a f4 91 3d
       -0.13601153 -0.13431522 0.19343376 0.071266726
000350 cd 19 62 be 51 4f 17 be ff 25 83 bd b4 b8 91 be
       -0.22080155 -0.1477635 -0.064037316 -0.2846123
000360 c9 7b f9 bd 6c a9 7c be e2 87 8b 3e 99 3e 15 3d
       -0.12181813 -0.24674004 0.27252108 0.03643665
000370 4e 62 01 bd ac 57 17 be 18 ef 3b 3e c1 a7 ba 3d
       -0.03158789 -0.14779538 0.18352926 0.09114028
000380 43 97 e3 3d d9 2d 7b 3e 97 86 62 3e 2b 55 4c be
       0.11112835 0.24529208 0.22121654 -0.19954364
000390 d0 95 cf 3d da e0 e5 3d 9d e8 32 3e 21 87 85 bd
       0.10135996 0.11224528 0.17471547 -0.065199144
0003a0 c0 e5 d6 bc d1 fb b3 bd 6f e8 2c 3e 4b 42 af 3d
       -0.0262326 -0.087882645 0.16885541 0.08557566
0003b0 03 23 2f 3e a6 34 ae be 3d fc 9a bb ec 08 56 be
       0.171032 -0.34024543 -0.004729776 -0.20901841
0003c0 d4 a2 0e be c8 f6 85 be 2d 1e 4d be 54 59 51 be
       -0.13929302 -0.26164842 -0.20031042 -0.20444232
0003d0 6e df 08 be 95 16 7f 3b 15 89 a2 3d 47 14 d8 bd
       -0.13366482 0.0038923372 0.079363026 -0.105507426
0003e0 c9 2a 76 be b8 2b 1c bd a5 db 2d 3d 3e 76 22 be
       -0.24039759 -0.03812763 0.042445797 -0.15865418
0003f0 cb 74 39 3e f3 60 5b be 39 89 45 3e 0d 66 ca 3d
       0.18110959 -0.21423702 0.19290628 0.09882746

arith.constant3 f4 [128, 1600]
000000 e2 3d 40 bd 38 6f 7e bd 18 e9 90 bd be 26 46 3b
       -0.046934016 -0.062117785 -0.07075709 0.0030235494
000010 04 b3 31 bc e5 2b cf bd cc 06 a3 bc 4f a8 e8 3b
       -0.010845903 -0.10115794 -0.019900702 0.007100142
000020 79 4f 12 bd aa 1d 75 bd c7 aa 9e 3b fd 75 2c 3d
       -0.035720322 -0.059842743 0.0048421356 0.04210471
000030 75 b6 d9 bc 56 dc b0 39 ca 4d a9 bd 2c bd a6 bc
       -0.02657626 0.000337335 -0.0826679 -0.020353876
000040 00 40 8a bd 8a 0a 4b 3d 69 d9 0a bc 97 b1 e8 bc
       -0.06750488 0.049570598 -0.008474686 -0.028404994
000050 7d 22 57 3d ec d8 33 bd cb 6f 87 3c 89 d7 69 3c
       0.052523125 -0.043908045 0.0165328 0.014272579
000060 f9 d4 66 bc 00 da 72 3c e0 86 e7 bc 92 2f c4 bc
       -0.014088863 0.014822483 -0.028262556 -0.023948465
000070 c5 37 95 3d bc b1 03 bd c8 1c 02 bd 78 c1 f4 3c
       0.07286028 -0.032151923 -0.03176573 0.02987741
000080 c4 de 5c bc 9d 4d c1 bc 9c 9c e6 bc 56 2d ae bd
       -0.013480846 -0.02359658 -0.028150849 -0.08504741
000090 c7 f3 a6 bd 8b 09 00 3d a0 19 24 3d cf 16 62 bd
       -0.081519656 0.0312591 0.0400635 -0.055197533
0000a0 56 cc 6d bd 82 eb 36 bd 09 c5 54 bd 79 e5 7a bd
       -0.058056198 -0.04465819 -0.05194572 -0.061254
0000b0 08 e5 88 3c e9 d5 85 bd 2b dc 53 bd a2 a6 44 bd
       0.016710773 -0.06534941 -0.05172364 -0.048010476
0000c0 b2 23 d5 3c 84 3c 70 bc f2 d5 1a bc 88 da 0b 3d
       0.026017997 -0.014662866 -0.009450423 0.034143955
0000d0 d7 58 71 bc b9 78 be 3c c0 f1 4e bd 37 78 ab bd
       -0.014730654 0.023250924 -0.05052352 -0.083725385
0000e0 aa 80 88 bc c8 bf cb 3b 18 59 c9 3c 2d 6e 38 bd
       -0.016662914 0.0062179305 0.024578616 -0.045026947
0000f0 33 97 fb bc 31 dc 84 bd f0 ce ff bc 77 76 cb 3c
       -0.030711746 -0.06487311 -0.031226605 0.024836762
000100 b9 cc 87 bc 5f 82 85 bd 54 ea 0b 3d ed 2f 2f bd
       -0.016577112 -0.06519007 0.03415902 -0.042770315
000110 12 3c a5 bd 4d 17 8a 3c c2 35 ff bc 28 d1 39 bd
       -0.08068098 0.016856814 -0.031153563 -0.045365483
000120 43 00 fc bb 69 97 12 3d 0a 9b 8d bd 40 b8 34 3d
       -0.007690461 0.035788927 -0.06914337 0.044121027
000130 78 10 cc bd 55 2f 49 3a 95 30 31 bd f5 58 ab bd
       -0.09964079 0.00076745945 -0.043259222 -0.083665766
000140 37 a0 8c 3d c4 9d 0a bd 38 cb 15 bd cd 07 e9 3c
       0.06866496 -0.033841863 -0.036570758 0.028446103
000150 e1 dc 63 bd ea 00 01 bc fb 5b 89 3b 19 49 10 3d
       -0.05563057 -0.007873753 0.004191873 0.03522596
000160 b0 58 24 3d 31 f8 b5 bd 2e 81 7f 3c e0 78 74 bc
       0.04012364 -0.088852294 0.015594764 -0.014921397
000170 b7 13 44 3c 4e 4f cf bc d4 85 ae 3c 7e 00 19 bd
       0.011967591 -0.02530637 0.021304049 -0.037353985
000180 d8 2e 52 3d d2 d8 3c 3b 76 e6 00 bd b0 82 00 3c
       0.051314205 0.0028815758 -0.031469785 0.007843658
000190 e7 b7 8a bb 7f ee 5d bd 24 2a 61 3d 11 e2 bd bd
       -0.0042333486 -0.054182526 0.05497183 -0.09271634
0001a0 9b 4d b8 3c 5c 85 7b 3c 99 02 30 3c fb 0a c8 bd
       0.022497943 0.01535162 0.010742807 -0.09767719
0001b0 d6 d4 b3 3c 9e 24 32 3c 54 3d fc 3b 34 8e 80 bc
       0.021952074 0.010872988 0.0076977406 -0.015692808
0001c0 6d 42 27 bc cd 7a 92 bc a6 1d 02 bd 3b f8 2b 3c
       -0.010208708 -0.017880822 -0.031766556 0.0104961945
0001d0 1e b6 8f bd d2 72 75 bd e9 00 fe bc 8c 43 a4 3c
       -0.07017158 -0.059923954 -0.031006293 0.02005174
0001e0 d5 bf 3e 3c 0e d8 6f bc ee 8a b8 3c 69 78 a4 3c
       0.011642416 -0.014638914 0.022527184 0.020076947
0001f0 32 90 cb 3c 6a f6 3b bc b8 35 68 bd 3c 8c 02 bd
       0.024849031 -0.011472324 -0.056691855 -0.03187202
000200 99 11 da bc 16 12 30 bd bc 50 68 bd b3 cc b6 bb
       -0.02661972 -0.042985998 -0.05671762 -0.0055786013
000210 28 86 8f bc 7b 91 8a bd d5 b9 10 bd bf a5 c1 bd
       -0.017520025 -0.067660294 -0.035333473 -0.09455442
000220 6a b8 f4 bb b0 e5 36 bd de 01 5c bd 61 ca 93 bd
       -0.007468273 -0.04465264 -0.05371272 -0.07216335
000230 a3 ea 08 bc ca 28 ba bc a8 2e fa bd 96 d9 57 bd
       -0.008356723 -0.022724528 -0.1221593 -0.05269774
000240 ee 24 a5 3b e7 fb 86 bd 66 2c 27 bd 05 89 5a 3d
       0.0050398028 -0.06591015 -0.040813826 0.05335333
000250 75 d9 fc bc bd be 03 3d 47 ff 49 3c c7 aa 94 bd
       -0.03086541 0.032164324 0.012328929 -0.07259136
000260 5f a7 d5 bc 1f 02 02 bd 2e ea c2 bd 46 73 87 bd
       -0.026080785 -0.031740304 -0.095173225 -0.066137835
000270 34 e2 07 be ca 4d 95 bd cc 64 f1 bd 90 2b 1d bd
       -0.13269883 -0.07290228 -0.117868036 -0.038371623
000280 bd 52 6e 3c 25 a9 e3 3c 50 02 be bc 5a 61 7b bc
       0.0145460935 0.027790615 -0.023194462 -0.015343035
000290 4e 97 f1 bd d7 8a c1 3b 71 c0 a4 3c 9a e5 67 3d
       -0.11796437 0.0059064436 0.020111294 0.05661545
0002a0 d7 8f 34 bd e8 0d 41 3d 09 d3 78 bc 56 fc cb 3c
       -0.04408249 0.047132403 -0.015187033 0.024900597
0002b0 a9 c3 ad bc bc 7d 79 3c 16 c6 ee bc 61 19 45 bd
       -0.021211462 0.015227731 -0.02914719 -0.048119906
0002c0 e6 e8 25 3d 43 f1 8b 3b b2 36 96 bd 09 69 53 3d
       0.040505312 0.004270704 -0.07334651 0.05161384
0002d0 82 0f 5d bd 29 40 8a bd 37 3c 89 bd a7 80 35 ba
       -0.053969868 -0.06750519 -0.06700938 -0.0006923773
0002e0 e1 4a c8 ba 40 bd 3a bc 29 11 ff 3c 75 f9 65 3c
       -0.0015281105 -0.01139766 0.031136112 0.014036526
0002f0 bc 68 e5 3c 45 fd c3 bd d8 64 25 3c a1 00 04 be
       0.028004043 -0.09569792 0.010094844 -0.12890865
000300 62 39 1c bd 2d 52 60 bc 15 45 6c 3c 70 ee 62 bd
       -0.038140662 -0.013691467 0.014420767 -0.055403173
000310 8a 46 87 3b af 5d c9 3b 3c 70 e3 bc 14 a0 15 bd
       0.004128282 0.006145201 -0.027763478 -0.036529616
000320 28 d4 cb bd 0b 2b 65 bd 37 c1 ec bc 66 83 92 bc
       -0.09952575 -0.055949252 -0.028900726 -0.017884921
000330 60 4a bf 3b 9a 6d 80 3c bd 94 a0 bd a9 87 ec 3c
       0.0058377236 0.015677262 -0.078408696 0.028873282
000340 ee 44 c4 bd 3c 2d bb bd c7 b6 2c 3d 41 3e 59 bc
       -0.0958346 -0.09139487 0.042166498 -0.013259471
000350 4d b0 5f bd 4f 9f 04 3d a8 c1 97 bd 7f d5 8c bd
       -0.054611493 0.03237849 -0.07409984 -0.06876659
000360 19 0f 15 bd 64 55 70 bc 4c f4 f6 bd 7a 64 4e 3c
       -0.03639135 -0.014668796 -0.12058315 0.012597198
000370 56 94 5a bd 8e 42 63 bd a0 cb b4 bd a8 1b fd bd
       -0.05336412 -0.055483393 -0.08827901 -0.12358791
000380 f0 7a 78 3c d3 6c 8e 3c 1f c7 30 3d 2a ac 6e 3c
       0.015166029 0.017385876 0.043158647 0.014567414
000390 12 72 b4 bd 44 29 0f bd c9 85 bf 3b c5 e2 ca 3b
       -0.0881082 -0.034951463 0.005844806 0.006191584
0003a0 b3 7e 6d bd 0f 0c 63 bd 05 41 60 bd 1d 96 50 3d
       -0.057982158 -0.05543142 -0.054749507 0.05092441
0003b0 2b 2b ff 3c cd dd d9 3c 08 a9 09 3c 64 33 7f 3c
       0.031148514 0.02659502 0.008402117 0.015576217
0003c0 c3 4c 35 bc d6 e9 65 3d a7 b5 53 3d 11 ad 28 bb
       -0.011065665 0.056131206 0.05168691 -0.0025737921
0003d0 ad f9 8c bd cf 19 4e bd 0f 65 0a bd 60 07 5e bc
       -0.068835594 -0.05031758 -0.033787783 -0.013551563
0003e0 f9 22 4a bc 1a 81 02 bd 11 f4 ec bd 46 bb 67 bc
       -0.01233744 -0.031861402 -0.115699895 -0.014143771
0003f0 a2 92 f3 3b 0a da 04 be 31 b7 85 3c f6 ff 98 bd
       0.0074332515 -0.129738 0.016322704 -0.07470696

arith.constant4 f4 [128]
000000 93 38 e5 3c 78 f3 25 bc 73 e1 d6 b9 3a 95 15 bd
       0.027981078 -0.010128848 -0.00040985233 -0.036519267
000010 bf 61 f9 b9 9a 59 29 3c 88 8c 04 3c 9f 3d 0f 3c
       -0.00047565807 0.010336304 0.008090146 0.008742719
000020 2f 87 92 3c 1b 9c c1 bb f4 13 ab ba 52 fd 8f 39
       0.017886726 -0.005908502 -0.0013052211 0.00027463824
000030 54 37 0c 3b 67 f3 85 3b 80 9c 26 bd 0b 1b 73 3b
       0.0021395283 0.0040878537 -0.040676594 0.0037094976
000040 47 fb b3 bb dc 82 8c bb 9c 7a 65 bc 33 9b c4 bb
       -0.005492601 -0.0042880606 -0.014006283 -0.0059999465
000050 c8 f7 ce 3c 97 dd d7 39 41 97 ec 3b 2e 09 87 3c
       0.025264636 0.00041173093 0.0072201793 0.01648387
000060 76 f4 7c 3c fc c6 81 bc 57 05 d3 3b 85 a5 20 3c
       0.015439143 -0.015841953 0.0064398455 0.009805088
000070 ff d6 c4 bb 6b 86 96 bb bf 4b 40 3c 52 9b 15 3b
       -0.006007075 -0.0045936606 0.011736809 0.0022828174
000080 cf d6 17 bc ed 66 26 3b 9c e3 8f 3b d0 2e fe bb
       -0.009267523 0.0025390938 0.004391147 -0.0077570453
000090 c1 15 8f bb 99 85 24 bc c5 e2 84 3c 6b 04 af bb
       -0.004366607 -0.010041618 0.016221413 -0.005341103
0000a0 bc 13 61 bc e0 45 5e bb 51 1d 62 bc 7f 82 74 39
       -0.013737615 -0.003391616 -0.013800935 0.00023318267
0000b0 41 d3 20 3b 49 40 f3 3b 03 e3 25 3b c5 4c e2 bb
       0.002453998 0.007423435 0.0025312311 -0.0069061243
0000c0 a7 83 e1 bb dc a2 0d bc 97 d5 88 3c 15 c4 fd bb
       -0.0068821493 -0.008644786 0.01670341 -0.007744322
0000d0 5b 9d 02 bc 25 af 6a bc 52 37 df 3a 10 59 49 bc
       -0.007972087 -0.014323984 0.0017030037 -0.012289301
0000e0 7e 1a 42 bc a4 49 9a bc 4f 48 6b bc a8 c3 85 3c
       -0.011847137 -0.018833943 -0.014360501 0.016328648
0000f0 d5 95 3e bc cc 9b b9 bb f6 8a 3c bc 7c ee 10 bb
       -0.011632402 -0.0056643244 -0.01150774 -0.0022114804
000100 23 1a c5 bb 0c bb 84 ba 96 fa 7c ba 19 9e e3 3a
       -0.0060150786 -0.0010126545 -0.00096503773 0.0017365842
000110 b6 6d f0 3a 8e 16 43 3c 5e 6a f5 bb a2 89 09 bc
       0.0018343243 0.011907233 -0.0074894866 -0.008394631
000120 85 00 8d bc 13 2e 7f 3c cb 06 d9 ba 61 08 be b9
       -0.017212162 0.01557495 -0.0016557811 -0.00036245867
000130 a9 db d0 bc 6d 3d a6 3c 1f ea a6 bb ca 6e db bb
       -0.025495367 0.020292962 -0.0050938274 -0.0066965567
000140 70 9d f3 bb 33 35 51 bc 38 ec bb 3a 4a e6 ec bb
       -0.0074345395 -0.012769031 0.0014337366 -0.007229601
000150 15 fd 9c bb 5b 42 8a bc f1 e3 b6 bb e1 33 d6 bb
       -0.004790912 -0.016877344 -0.005581372 -0.006536946
000160 b6 b1 65 bb 53 37 38 bb 1b 47 35 3b eb 13 92 3a
       -0.003504855 -0.0028109148 0.002766079 0.0011144852
000170 52 b4 e9 bc b4 49 90 bc f3 13 ea bb 9c 6d ef 3b
       -0.028528366 -0.01761327 -0.0071434914 0.0073067676
000180 fb 58 19 3b 42 48 28 3c a8 5d b4 3b af d5 de bb
       0.0023398984 0.010271134 0.0055043288 -0.0068003754
000190 a3 e3 47 3b 9e d6 f2 bb 70 47 05 3c 81 d9 c5 bb
       0.0030500672 -0.0074108383 0.008134708 -0.0060378914
0001a0 c5 0a 31 bb 28 71 3d bc 08 f2 14 3c 5d 18 30 bc
       -0.0027014476 -0.011562623 0.009090908 -0.010747996
0001b0 d6 6f 8d 3c 4f d1 0e bc da 59 5d bc d5 59 14 bc
       0.017265242 -0.008716895 -0.013510192 -0.009054621
0001c0 82 da 11 bb 25 1b f8 bb 9a 31 84 bc fd c3 4b bc
       -0.0022255485 -0.0075715953 -0.016136933 -0.012436864
0001d0 06 77 13 bd 1c 90 51 3c 61 db e6 3a 77 9e f6 bc
       -0.03600218 0.012790706 0.0017612987 -0.030104859
0001e0 5c 72 ad bb da eb e3 bb b7 b7 b5 ba 8a 4e c5 bb
       -0.0052931737 -0.006955606 -0.0013863955 -0.0060213255
0001f0 d4 31 45 3c 7f 5b c4 bb 81 f1 2d 3c 45 88 a2 3c
       0.012035806 -0.0059923525 0.010616661 0.019840369

arith.constant5 f4 [10]
000000 fe 04 50 3d bf 70 4e 3d 23 67 98 3d 4b 96 70 bd
       0.05078601 0.05040049 0.07441547 -0.05873708
000010 b6 89 1a bd 34 70 2a bd 86 f7 86 bd 44 6c 23 bd
       -0.037728988 -0.04161091 -0.0659018 -0.039898172
000020 c4 0d 3d 3d 7d c4 f4 bb
       0.046155706 -0.0074697123

sequential_1/conv2d_1/convolution f4 [32, 3, 3, 1]
000000 53 bb 09 3e fd 37 5b 3e e5 8d 67 3d 20 d4 13 bd
       0.13450365 0.21408077 0.056531806 -0.03609097
000010 96 e8 46 3e 10 4a e9 3d 20 2d 9e be f7 73 14 be
       0.19424662 0.113910794 -0.30893803 -0.14497362
000020 1a 4d 34 3e bc 6f 81 3d cf 9c 51 3e 24 c8 ef 3d
       0.17607537 0.0632014 0.20469974 0.11708096
000030 e9 7a 9a 3d 11 e6 c4 3d a3 42 de bd 83 40 4e 3e
       0.075429745 0.09614194 -0.10852554 0.20141797
000040 ff 3e 10 3e ae 4f 39 3d 18 ab 53 bd 9d 8b 00 3e
       0.14086531 0.045242004 -0.05167684 0.12553258
000050 20 6c 4f 3e a8 5a 24 bd cd 98 2f 3e 92 a3 ad 3d
       0.2025609 -0.04012552 0.17148133 0.08478464
000060 c4 d9 84 bd 73 5d 45 be 5e d7 3d be 71 f7 fc 3d
       -0.06486848 -0.1927393 -0.18539187 0.12351883
000070 18 f4 e1 bc 51 56 86 be 19 07 60 3e 5a f1 13 bb
       -0.027582213 -0.2623773 0.21877708 -0.0022574277
000080 3c e6 16 be 68 79 f7 3d b7 cc 16 bd 24 09 6d be
       -0.14736265 0.12083703 -0.036816325 -0.23148018
000090 48 67 42 3e 6d db 80 3d 98 89 47 bd 3a be 91 3d
       0.18984711 0.06291852 -0.048715204 0.07116361
0000a0 77 9b 0b 3e cb 6f 37 3e a0 5f 0b 3e 1c 41 6b 3e
       0.13633524 0.1791374 0.13610697 0.22974056
0000b0 47 72 1a 3e f8 6b 0e bd b6 a6 60 3e af 5e d1 3d
       0.15082656 -0.034770936 0.21938595 0.102231376
0000c0 a0 7c 16 3e fd 5a 5f 3e 9c cd 37 3a 4b 9b 4b 3e
       0.14695978 0.21812053 0.0007011534 0.19883458
0000d0 61 b1 cb 3c 81 c6 59 3e f9 72 22 3e 52 12 4f 3e
       0.024864854 0.2126713 0.15864171 0.20221832
0000e0 7d cc cf 3d c4 e6 9c 3c d1 a5 af 3d b4 08 e0 bb
       0.10146425 0.019153006 0.08576549 -0.006836975
0000f0 31 7d 4d be 7f 61 89 be b4 91 65 bd 98 97 80 be
       -0.20067288 -0.26832196 -0.056047156 -0.25115657
000100 99 8c bf 3d 7f 46 6d 3e ea 32 25 be 14 e1 86 3e
       0.09352989 0.23171423 -0.16132703 0.26343596
000110 b3 5c ed 3d 40 b7 cc 3d 82 cf b2 3e 17 f3 45 3e
       0.115899466 0.0999589 0.3492394 0.19331013
000120 8e 5c 54 3e 94 22 18 3a 93 de 34 be 77 be 19 3e
       0.20738432 0.00058034924 -0.1766303 0.15014063
000130 2e 84 fb bc a2 46 28 be 96 f0 75 3e 7d 09 f1 bd
       -0.030702677 -0.16433194 0.24017558 -0.11769388
000140 b3 fa 18 be f0 79 ca bd 56 ae 91 bd 3d d1 82 3e
       -0.14939384 -0.09886539 -0.0711333 0.2555026
000150 ed 83 ef bb 74 3c 69 be 71 29 49 3e 2c 25 dd 3d
       -0.007309428 -0.22776967 0.19644715 0.107981056
000160 fc 2c 33 be 36 a1 cf bc 9f b0 72 3d e8 2b 4b 3e
       -0.17497629 -0.025345426 0.05925047 0.19840968
000170 91 72 31 3e ca ba 00 bd d3 6b 40 3e 99 6a 0c 3e
       0.1732886 -0.031428136 0.18791132 0.13712539
000180 f2 82 80 be 7f eb ad bd 13 b6 40 3e 5c 61 4f 3e
       -0.25099903 -0.08492183 0.18819456 0.20251983
000190 89 48 10 bd 28 32 af bd 05 85 5c 3d 5a 91 b5 3d
       -0.035225425 -0.085544884 0.053837795 0.08865614
0001a0 d1 66 53 3e 83 f9 2f 3d e0 95 7c bd bc ba 3e 3e
       0.2064469 0.042962562 -0.06166637 0.18625921
0001b0 35 29 5b 3e 5f 7b 23 3e d3 92 f3 3d 95 f1 25 3e
       0.21402438 0.15965031 0.11893239 0.16205437
0001c0 cf 0a 7c 3e ba 0f 67 3c 82 87 86 3d db f2 c2 3c
       0.24613498 0.014102871 0.06568815 0.023797443
0001d0 c9 2e 11 3e d5 c0 96 3d d0 ca 36 3e f4 b8 3f 3d
       0.14178003 0.073609985 0.17850804 0.046807244
0001e0 01 65 17 bd ac 91 17 3d f3 ef 62 3e 26 29 be bd
       -0.03696156 0.037004158 0.22161846 -0.09285192
0001f0 12 64 44 3e 53 82 9a 3d 74 77 fe 3d 59 8f 8a 3e
       0.19178799 0.075443886 0.124251276 0.2706249
000200 36 f8 68 3e 2f 48 18 be 0e 18 32 3e de 11 96 3c
       0.22750935 -0.14871286 0.17391989 0.018319067
000210 cd e8 e8 bd 38 e2 25 3e cd e7 91 bd a0 b9 36 bc
       -0.11372528 0.16199577 -0.071242906 -0.011152655
000220 c8 d5 a2 bd c3 5e 9a be 4d 19 4c 3e 22 a3 7f bd
       -0.07950932 -0.30150422 0.19931526 -0.062411435
000230 ac 42 d6 bd 85 e1 83 3e 56 2a da 3d 50 98 ec bc
       -0.104619354 0.25757995 0.10652606 -0.028881222
000240 77 7a 46 3c 2a f1 dc bb 2f 2a 37 3e 0a 85 16 3e
       0.012114159 -0.006742616 0.17887186 0.14699188
000250 a9 df 1d 3e 66 9a 10 3e 66 c9 50 3e 47 63 3c 3e
       0.15417351 0.14121398 0.20389327 0.18397246
000260 81 67 e5 bd 52 74 8a 3c 45 ff c8 3d 85 8b 91 3e
       -0.112013824 0.016901169 0.09814314 0.28426757
000270 3c 3d 40 be d3 d3 1a 3c 30 af 50 3e 44 97 93 be
       -0.18773359 0.009449917 0.20379329 -0.28826344
000280 91 fb b1 bd 88 10 20 bd c3 8f ff bc ed 70 c3 3d
       -0.086905606 -0.039078265 -0.03119648 0.09543023
000290 64 bf 73 be 12 30 6e 3e 71 6a 4b 3e de 56 23 be
       -0.23803478 0.23260525 0.19864823 -0.15951106
0002a0 35 13 81 3e d4 39 46 3d 29 69 c8 3d d7 0a e1 3c
       0.25209966 0.048394993 0.09785683 0.02747099
0002b0 c8 5a 7d 3e 0a 7b f4 3d 2b fe 5c 3e eb 5b 08 3e
       0.24741662 0.1193753 0.21581332 0.13316314
0002c0 5f 34 35 3e 5b 59 fc 3d 87 80 98 3b 2e 18 29 3d
       0.17695759 0.12321731 0.0046539935 0.041282825
0002d0 53 ed 00 3e 42 74 bb 3d 19 ca 3b 3d 7b 1d 0a 3e
       0.12590532 0.09153034 0.045847032 0.13487808
0002e0 c8 8d f5 3d b5 9e f6 3d a9 ae 39 3e e3 52 9a 3d
       0.11989933 0.1204199 0.18133034 0.07535341
0002f0 f2 42 96 3d e2 e2 30 bd 42 6b 6f be f4 4d be 3c
       0.073369876 -0.043185122 -0.2338076 0.02323053
000300 84 be b3 3d 8a a3 d5 bd ef 20 3d be 0b 7a 5c 3e
       0.08776572 -0.10431583 -0.18469594 0.2153093
000310 66 1c 5e bb c8 82 7d be 7a 9c 45 be ec 2d e3 3c
       -0.0033891439 -0.2475692 -0.19297972 0.027731858
000320 b7 05 0a 3e 05 4c 6b bd 8e 75 cc 3d b0 67 8a 3e
       0.13478743 -0.057445545 0.09983359 0.27032232
000330 c2 18 76 be b5 54 0b bc 08 1b ac 3d dc d9 3d 3e
       -0.24032882 -0.008504082 0.08403593 0.18540138
000340 e9 be 21 3e 78 9e 27 3d 77 50 76 bd 33 a9 88 bd
       0.15795483 0.040922612 -0.06013533 -0.06672897
000350 d0 56 74 be 9b dd c5 3d 93 80 79 bd 34 ad ed bd
       -0.23861241 0.096614085 -0.060913634 -0.116053015
000360 bc 09 a7 bd 78 aa 81 be 02 46 16 3d 92 e1 40 3e
       -0.081561536 -0.2532537 0.03668786 0.18836048
000370 c2 25 09 be c7 8f 02 be 50 93 11 3e 15 23 c7 bd
       -0.1339331 -0.12750159 0.14216352 -0.09723488
000380 b3 6b 38 be bf 7c 72 3e 2f 94 23 3e 5d ae 21 be
       -0.18009834 0.236804 0.15974496 -0.1578917
000390 49 3d 80 3e 7f 91 9b 3d 64 ec 86 be 25 39 d2 3d
       0.25046757 0.075961106 -0.26352227 0.10264806
0003a0 2a 04 b3 3c 8f f8 2b be e7 44 13 3e 42 3c 4f 3e
       0.021852572 -0.16794036 0.14381753 0.2023783
0003b0 fe 3e 86 3e fe cf bd bc e2 26 73 bb 16 9a bf bd
       0.26219934 -0.023170467 -0.0037102033 -0.093555614
0003c0 3e c8 be bc 9d 34 48 be d9 b2 95 be 57 5f 61 3d
       -0.023288842 -0.1955132 -0.29238012 0.055022564
0003d0 17 bc cf 3d 1b 74 05 3e c1 07 c4 3b 9c 1a ff bc
       0.10143297 0.13032572 0.0059823697 -0.031140618
0003e0 b2 98 83 bd 81 45 54 be a8 ea 0c be 93 1d 52 be
       -0.06425609 -0.20729639 -0.1376139 -0.20519094
0003f0 81 11 0c be bd 1b 4e 3e c4 29 16 3d f7 89 85 be
       -0.13678552 0.20127769 0.036660925 -0.2608182

sequential_1/conv2d_1/Relu;sequential_1/conv2d_1/BiasAdd;sequential_1/conv2d_1/convolution; f4 [32]
000000 10 04 9e bc 89 0c fb bc e5 3b 58 3d 3c 25 9c 3d
       -0.019289047 -0.030645626 0.052791495 0.076242894
000010 4c 5e 63 bc 77 06 06 bc e7 ab a4 3c 9d 30 d8 3a
       -0.013877463 -0.008180252 0.0201015 0.001649398
000020 b0 8a 48 3d be 46 84 bb c5 b9 95 bc d4 0d 41 bd
       0.048960388 -0.0040367534 -0.018277058 -0.04713233
000030 51 5e c6 bc 02 da 9d bc e3 d2 fe bc 53 09 37 ba
       -0.024214895 -0.019268993 -0.031106418 -0.00069822854
000040 46 30 fb bb f2 51 b6 3c 84 4f 14 bc aa aa e0 bc
       -0.0076656668 0.022255871 -0.009052161 -0.027425129
000050 44 90 c7 bc 22 2d 98 3d 9d 6d 15 3c a7 2c 4b 3d
       -0.024360783 0.074304834 0.009120372 0.04960313
000060 0e 73 bb 3d da cf 8a ba a1 22 98 3d 5a c7 17 3e
       0.09152804 -0.0010590509 0.0742848 0.1482214
000070 c2 b0 0b bb d8 81 bd bc a1 28 9a bc aa 8a ea 3d
       -0.0021315073 -0.023133203 -0.018818201 0.11452229
