submission/tflite/model.tflite (tflite, 903508 bytes, 8 tensors)

arith.constant f4 [64]
0	0xbda5b3d3	-0.080909394
1	0xbd556d66	-0.052106284
2	0xbcf2ba8a	-0.029629964
3	0xbd699aab	-0.05703227
4	0x3d81b6bf	0.06333684
5	0xbd5b5de6	-0.053556345
6	0xbd48fbcd	-0.04906826
7	0xbd3741a5	-0.044740338
8	0x3cf9a8c1	0.030475976
9	0xbcd3c82e	-0.025852289
10	0xbd743377	-0.059619393
11	0x3d08cd7b	0.033399086
12	0xbcf8f125	-0.030388424
13	0xbd540ab9	-0.05176804
14	0xbd3b366b	-0.045706194
15	0x3cacce09	0.021094339
16	0x3d5aa528	0.05338016
17	0x3c65b959	0.014021241
18	0xbb2f3f50	-0.0026740618
19	0xbcf68fdd	-0.030097896
20	0xbd15086e	-0.036384992
21	0xbd0edc22	-0.034877904
22	0xbd4d9478	-0.05019042
23	0xbd2ce212	-0.042207785
24	0x3caa6313	0.020799195
25	0xbc80bf3f	-0.015716193
26	0xbb20338e	-0.0024444791
27	0xbc0b3539	-0.008496576
28	0x3c4b94b5	0.012425591
29	0x3cb48f06	0.022040855
30	0x3ba2a54c	0.0049635526
31	0x3c469729	0.012121
32	0xb9d920fb	-0.00041414038
33	0x3cd553ce	0.026040938
34	0xbd145bee	-0.036220483
35	0x3bed02e1	0.007233009
36	0xbc900da2	-0.017584626
37	0xbda3803d	-0.07983444
38	0xbca83eb4	-0.020537712
39	0x3d08ad5c	0.033368453
40	0xbd1002f2	-0.03515906
41	0x3c00a863	0.0078526465
42	0xbd91adac	-0.071132034
43	0xbd5310f3	-0.051529836
44	0xbd52e48a	-0.051487483
45	0xbd15df0c	-0.036589667
46	0x3bf4a918	0.0074664466
47	0x3c8e21c5	0.017350087
48	0xbd510e1f	-0.051038858
49	0xbd491f06	-0.049101852
50	0xbd26398b	-0.04058222
51	0xbd991309	-0.07474334
52	0x3cdf0192	0.027222428
53	0xbd475397	-0.0486637
54	0xbd625956	-0.05526098
55	0xbd4b5ecd	-0.049650956
56	0xbcbe06fe	-0.023196694
57	0xbd7a4968	-0.061105162
58	0xbd8e28b3	-0.069413565
59	0x3d141368	0.03615132
60	0xbd8a1136	-0.06741564
61	0xbd271860	-0.04079473
62	0xbcf74b3a	-0.030187238
63	0x3c10cc53	0.008837777

arith.constant1 f4 [64, 3, 3, 32]
0	0x3cf319d6	0.029675405
1	0xbb308517	-0.0026934796
2	0x3dc0651e	0.093942866
3	0xbd2b4017	-0.041809168
4	0x3d833216	0.064060375
5	0x3d9fd005	0.078033485
6	0x3cd55adc	0.026044302
7	0x3c46b7b6	0.012128761
8	0x3ca21c58	0.019788906
9	0x3d3cdc06	0.04610827
10	0x3d9d37ff	0.07676696
11	0xbd74fab3	-0.059809398
12	0xbd708e95	-0.058729727
13	0x3dbc7eca	0.092038706
14	0xbc825815	-0.015911141
15	0x3d433f4d	0.04766779
16	0x3dbef826	0.09324674
17	0x3d81aed2	0.063321725
18	0x3bee3ab8	0.0072701834
19	0x3bdf5bd6	0.0068163676
20	0xbcd29e21	-0.025710167
21	0x3d9fab06	0.07796292
22	0xbd87b382	-0.06626035
23	0xbda6a686	-0.081372306
24	0xbdc0b65a	-0.09409781
25	0x3dec8ae9	0.115499325
26	0x3d825b4d	0.063650705
27	0xbde994e4	-0.11405352
28	0xbca2a80b	-0.01985552
29	0x3dda9fa8	0.10674983
30	0xbd4163eb	-0.04721443
31	0xbc99e4a8	-0.01878579
32	0x3db2a29c	0.087224215
33	0xbd574545	-0.052556295
34	0xbbf5278b	-0.0074815205
35	0x3d7a0f5e	0.06104981
36	0x3dba0a40	0.09083986
37	0x3da17e3d	0.07885406
38	0xbcf01dea	-0.02931114
39	0x3d8acbc5	0.06777147
40	0xbd913491	-0.07090104
41	0x3d6120dd	0.05496298
42	0x3da556f3	0.08073225
43	0xbd8ba5cd	-0.06818733
44	0xbdc3d38a	-0.09561832
45	0x3d738e9c	0.059462175
46	0xbcec736b	-0.02886363
47	0xbd0cdaa4	-0.0343882
48	0x3d6c7d56	0.057736717
49	0x3d26b2d7	0.0406979
50	0x3d38aef0	0.04508871
51	0x3ca8d52b	0.020609459
52	0x3cdb7364	0.026788421
53	0xbd010f86	-0.031508945
54	0x3d308b04	0.043101326
55	0xbcdc6017	-0.026901288
56	0xbe3f04c9	-0.18654169
57	0x3daf04f7	0.08545869
58	0x3e076590	0.13222337
59	0x3cd661df	0.026169715
60	0xbd157be0	-0.03649509
61	0xbcc3e2b3	-0.02391181
62	0xbdb43f96	-0.088011906
63	0xbc13282a	-0.008981744
64	0xbd667029	-0.056259308
65	0xbcbabbdb	-0.022794655
66	0xbcfc8ae2	-0.030827943
67	0x3d03b59a	0.03215561
68	0xbd99e31a	-0.07514019
69	0xbcaa6961	-0.020802202
70	0x3bc409d3	0.0059826165
71	0xbd5af46c	-0.053455755
72	0x3cc237ef	0.023708312
73	0xbd54f3c7	-0.051990297
74	0x3e1c743d	0.15278716
75	0xbd102c94	-0.035198763
76	0xbe35e6c0	-0.17763805
77	0xbce4252e	-0.02784976
78	0x3d30ee2a	0.04319588
79	0xbd872d66	-0.06600456
80	0x3db53e3b	0.0884976
81	0xbda910c2	-0.082551494
82	0xbdb6a732	-0.08918609
83	0x3e1314fa	0.1436347
84	0x3da09d8c	0.0784255
85	0xbd7c6c9a	-0.061627008
86	0x3caaac41	0.02083409
87	0xbd888370	-0.06665695
88	0xbe3325c8	-0.17494881
89	0x3d8b33a1	0.06796957
90	0xbb0b9f1a	-0.0021304549
91	0x3cdab2c9	0.02669658
92	0xbda5d507	-0.08097272
93	0xbcae5ac6	-0.021283519
94	0x3caf9719	0.021434354
95	0xbc44e894	-0.012018342
96	0x3d8eec5d	0.069786765
97	0x3d819fec	0.06329331
98	0xbc7cde16	-0.015433809
99	0xbbbbb5aa	-0.005728443
100	0xbc9807c5	-0.018558392
101	0x3ce583c5	0.028016934
102	0xbbfd71c3	-0.0077345087
103	0x3dc6fd84	0.09716323
104	0xbd0c386a	-0.03423349
105	0x3de0e5d5	0.10981337
106	0x3d134517	0.03595456
107	0xbcbcd6ba	-0.023051608
108	0xbddb4675	-0.10706798
109	0xbda8dc83	-0.08245184
110	0x3dca870a	0.09889038
111	0xbaff64c1	-0.0019484983
112	0xbb951567	-0.0045496705
113	0xbdab8ccb	-0.083764635
114	0x3d6a54d4	0.057209805
115	0xbdbdcfce	-0.09268151
116	0xbcb36a63	-0.021901315
117	0x3d280c82	0.041027553
118	0xbd761603	-0.060079586
119	0x3dba39dd	0.09093068
120	0xbe3266cd	-0.17422028
121	0xbd2c87f6	-0.04212185
122	0x3e3bae57	0.18328224
123	0x3d963135	0.07333604
124	0x3d93eeec	0.07223305
125	0x3b320d4a	0.0027168565
126	0x3c927da5	0.017882178
127	0xbdd6d799	-0.10490341
128	0x3d0667c6	0.03281381
129	0x3d4e2ea3	0.050337445
130	0x3d528dbd	0.051404703
131	0x3d5a026d	0.05322497
132	0x3cf6eed0	0.030143172
133	0x3da7e2ab	0.0819753
134	0xbdc101c0	-0.09424162
135	0x3915169c	0.0001421817
136	0xbc9a986c	-0.018871509
137	0x3df54ddb	0.119777404
138	0x3df0e645	0.117626704
139	0xbd566d7f	-0.052350517
140	0xbe457b1d	-0.19285245
141	0xbd5675f1	-0.05235857
142	0xbcdda69f	-0.02705699
143	0x3d6592a0	0.056048036
144	0xbb824fdb	-0.0039768047
145	0x3d7a2419	0.06106958
146	0x3d16c365	0.036807436
147	0x3d1d916e	0.03846877
148	0xbd373c50	-0.044735253
149	0xbc9b2747	-0.018939627
150	0xbd391820	-0.045189023
151	0x3dba1dfd	0.09087751
152	0xbe582ef2	-0.21111658
153	0x3d69b57d	0.057057846
154	0x3dc8ef38	0.09811252
155	0xbd019b50	-0.03164226
156	0xbd171da9	-0.03689352
157	0x3d8801fc	0.066410035
158	0x3ccca00b	0.024978658
159	0xbd5ec724	-0.054389134
160	0xbd7f70f8	-0.062363595
161	0x3b2a0458	0.002594253
162	0x3d9d3665	0.076763906
163	0x3d99c22b	0.07507738
164	0xbe0864ea	-0.13319746
165	0x3d103c74	0.035213903
166	0xbce1f58b	-0.027582904
167	0x3c9fa2c2	0.019486789
168	0x3dc0d60d	0.09415827
169	0xbd8153aa	-0.06314786
170	0xbd186a13	-0.037210535
171	0x3d20703d	0.03916954
172	0xbdb33232	-0.08749808
173	0xbce4ac0c	-0.02791407
174	0xbd4bd6f6	-0.04976555
175	0x3c83e9f4	0.016102768
176	0x3c717a8b	0.014738689
177	0x3bf29995	0.0074035623
178	0xbce1273e	-0.027484532
179	0x3b6fa95c	0.0036569452
180	0x3d3fbdfa	0.046812035
181	0x3d922f35	0.0713791
182	0x3d6f57a9	0.05843321
183	0x3d14d19e	0.03633272
184	0xbe84a009	-0.25903347
185	0xbbd3449a	-0.006447387
186	0x3ddbeaa8	0.107381165
187	0xbcdbbaa0	-0.026822388
188	0x3d1875ce	0.037221722
189	0x3cfbbc77	0.030729515
190	0x3d33a252	0.043855973
191	0xbdaeedb0	-0.08541429
192	0xbd1b23a9	-0.037875805
193	0x3c6d851b	0.014497067
194	0xbd08b126	-0.033372067
195	0x3d30639f	0.043063756
196	0x3af14230	0.0018406566
197	0xbd8c196c	-0.06840786
198	0xbdf2a6e8	-0.11848241
199	0xbcab2e7d	-0.02089619
200	0xbd46b319	-0.048510645
201	0x3b86d1f2	0.004114383
202	0x3c3777a3	0.011197957
203	0xbd4ba0b3	-0.0497138
204	0xbba0b15d	-0.004903956
205	0x3d58aa00	0.0528965
206	0xbdb691ef	-0.089145534
207	0xbdcc84bd	-0.09986255
208	0xbd2f13f9	-0.042743657
209	0x3bc710e4	0.0060750116
210	0x3d4b30c0	0.04960704
211	0x3c1bd748	0.009511776
212	0x3d1f2fcf	0.038863953
213	0x3c0253d1	0.007954554
214	0xbd81fc8a	-0.06346996
215	0x3d22f4a7	0.0397841
216	0xbd424d92	-0.047437258
217	0x3d167a08	0.03673747
218	0x3dedf17d	0.11618326
219	0xbd1370a0	-0.03599608
220	0xbd2d7b8b	-0.042354148
221	0xbd8c777e	-0.06858729
222	0xbdc4cc66	-0.096092984
223	0x3b165352	0.0022937846
224	0xbceeb914	-0.029140987
225	0xbd74b65f	-0.059744235
226	0xbca83150	-0.020531327
227	0x3d7b41b5	0.06134196
228	0x3cac6985	0.02104641
229	0x3d98817c	0.07446572
230	0x3d6560b2	0.05600042
231	0x3cf1be4c	0.029509686
232	0x3db8ad29	0.09017403
233	0xbc456a78	-0.01204931
234	0x3c161e9e	0.009162573
235	0x3d9147b6	0.07093756
236	0xbde67d8d	-0.11254416
237	0x3d4ffc4c	0.05077772
238	0xbda5b451	-0.08091033
239	0xbcbca68a	-0.02302863
240	0x3d382884	0.044960514
241	0x3b8af4d5	0.004240612
242	0x3c818638	0.01581107
243	0x3dea729a	0.1144764
244	0x3d892547	0.06696563
245	0x3c82586a	0.0159113
246	0x3c8d7f9b	0.017272761
247	0xbde6d75e	-0.11271547
248	0xbd9b6347	-0.07587295
249	0xbda1a069	-0.07891924
250	0x3c30f88f	0.0108014485
251	0xbdc7ba2f	-0.097523086
252	0x3ccccc5a	0.024999786
253	0xbd2e3737	-0.042533126
254	0x3d0164a7	0.03159013
255	0x3daace2f	0.08340108

arith.constant2 f4 [10, 128]
0	0x3ceee42c	0.029161535
1	0x3e22c886	0.15896806
2	0xbdcddc39	-0.1005177
3	0xbdc45bb6	-0.09587805
4	0x3c923fa9	0.017852621
5	0x3c97887f	0.018497704
6	0x3c6a97b3	0.0143183945
7	0xbe4f4904	-0.20242697
8	0xbd6fad04	-0.05851461
9	0x3b9ed36c	0.004846981
10	0xbe4be395	-0.19911034
11	0xbe347441	-0.17622472
12	0x3d78bb09	0.060725246
13	0x3d979554	0.07401529
14	0x3e0d0824	0.13772637
15	0x3e332f4d	0.17498513
16	0x3e326744	0.17422205
17	0xbe399909	-0.18124785
18	0xbe37be99	-0.17943801
19	0xbe0fbb24	-0.14036232
20	0xbe09b467	-0.13447724
21	0xbe8613f8	-0.2618711
22	0xbdb62156	-0.08893077
23	0x3e56ecd8	0.20988786
24	0xbe7663d8	-0.24061525
25	0x3d41e9ff	0.047342297
26	0x3e2bd708	0.16781247
27	0x3e6862aa	0.22693887
28	0x3e15e76d	0.14639063
29	0xbe5fdef9	-0.21862401
30	0x3d45275f	0.04813325
31	0xbdd5a4fb	-0.10431858
32	0x3daf92c1	0.08572913
33	0xbe6c03b4	-0.23048288
34	0x3dc54082	0.096314445
35	0x3d26b736	0.040702067
36	0xbea6ed72	-0.3260303
37	0x3e466249	0.1937343
38	0x3e3bfcdf	0.18358181
39	0xbd3b9833	-0.045799445
40	0x3e1f62d2	0.1556504
41	0xbe846151	-0.25855497
42	0xbea8b433	-0.3294998
43	0x3e3307dc	0.17483467
44	0xbda76691	-0.0817386
45	0x3c05abc1	0.008158625
46	0x3df9e0f2	0.12201108
47	0x3e0f3654	0.13985568
48	0x3dbce33a	0.092230275
49	0xbe0269ea	-0.12735716
50	0x3e733ab8	0.23752868
51	0xbdc95d9f	-0.0983231
52	0x3e1873b2	0.14887884
53	0x3d92875e	0.071547255
54	0xbe8c2da5	-0.27378574
55	0x3e4d41c8	0.20044625
56	0x3dcc567e	0.099774346
57	0x3da37080	0.07980442
58	0x3dcdf8d9	0.100572295
59	0x3e07c2af	0.1325786
60	0x3df9f9da	0.122058585
61	0xbd73da1b	-0.059534173
62	0xbe9ca943	-0.30597886
63	0xbe13cd17	-0.14433704
64	0x3e3eb337	0.18623053
65	0x3e3b0979	0.18265332
66	0xbde320d8	-0.11090249
67	0x3e3405be	0.17580315
68	0x3d9f8633	0.07789268
69	0x3a1ed9fe	0.0006059705
70	0xbe53d2ec	-0.20685929
71	0x3e4029b8	0.18765914
72	0x3e52daae	0.20591232
73	0xbddd2b03	-0.107992195
74	0x3cbc4440	0.022981763
75	0x3dd5e5eb	0.10444244
76	0xbe0b4678	-0.136011
77	0xbe286f27	-0.16448651
78	0x3dac3c97	0.08409994
79	0xbe6d381e	-0.23165938
80	0x3e16baa1	0.14719631
81	0xbe37bf4f	-0.17944072
82	0x3df7550c	0.12076768
83	0xbdd75f40	-0.10516214
84	0xbd19addf	-0.037519332
85	0x3e4d0d59	0.20024623
86	0x3d4ea2d8	0.05044827
87	0x3e647d83	0.22313504
88	0x3e1855ba	0.14876452
89	0xbe1e33ce	-0.1544945
90	0xbe3b3dd9	-0.18285312
91	0x3ddcc73e	0.1078019
92	0x3e3aa350	0.18226361
93	0x3d41a652	0.047277756
94	0xbe53effd	-0.20697017
95	0xbda67e88	-0.08129603
96	0x3e4a112f	0.19733118
97	0xbe424f94	-0.18975669
98	0x3da2b02a	0.07943757
99	0xbdb1660b	-0.08662041
100	0x3e28efd3	0.16497736
101	0xbe829a4d	-0.25508347
102	0x3e59820b	0.21241014
103	0xbe567d69	-0.20946278
104	0xbdd18526	-0.10230474
105	0x3c24d0c4	0.010059539
106	0xbe672a0a	-0.2257463
107	0xbe7f7267	-0.24945985
108	0xbe4f00e8	-0.2021519
109	0xbcbab452	-0.022791062
110	0x3c40bc75	0.011763682
111	0xbe34b718	-0.1764797
112	0xbe0776e4	-0.13228947
113	0xbe530758	-0.2060827
114	0xbe286e41	-0.16448309
115	0xbcf99004	-0.03046418
116	0x3df5afd4	0.11996427
117	0xbe1e8fe1	-0.15484573
118	0x3e0df104	0.13861471
119	0x3e12c82a	0.14334169
120	0xbe0969d2	-0.13419273
121	0xbca1d669	-0.019755559
122	0x3e352ebf	0.17693613
123	0x3e3294b6	0.17439541
124	0xbe9238bd	-0.28558913
125	0xbd2a8a3d	-0.04163574
126	0x3d446928	0.047951847
127	0xbe14609c	-0.14489979
128	0xbe2b06eb	-0.16701858
129	0xbe5fcc5d	-0.21855302
130	0xbe114dff	-0.1418991
131	0xbe0166ba	-0.12636843
132	0xbc3f02cb	-0.011658381
133	0xbeb2d7e0	-0.34930325
134	0xbe47c339	-0.19508065
135	0xbe9fa54b	-0.31180796
136	0x3e2af285	0.16694076
137	0xbcba3246	-0.02272905
138	0x3df1c133	0.11804428
139	0x3dd0317f	0.10165691
140	0x3e18c147	0.1491748
141	0x3caedd62	0.021345798
142	0x3e373991	0.17893054
143	0x3e450a3a	0.19242182
144	0xbe0508b6	-0.12991604
145	0x3e019ec8	0.12658226
146	0x3e36b212	0.17841366
147	0x3e37e394	0.17957908
148	0xbc27913f	-0.0102275
149	0x3da3dbf6	0.080009386
150	0x3d91c909	0.071184225
151	0xbe5974f7	-0.21236025
152	0xbc17ccfa	-0.009265179
153	0xbe47222a	-0.19446626
154	0xbdd5d483	-0.10440924
155	0xbe3d1052	-0.18463257
156	0xbe8884ef	-0.2666392
157	0x3db3d673	0.08781137
158	0xbdbd9a94	-0.09257999
159	0x3e712c5d	0.2355208
160	0x3d204a86	0.03913357
161	0xbdc3f585	-0.095683135
162	0xbe2aaff9	-0.1666869
163	0x3da4f537	0.080545835
164	0x3e1ad949	0.1512195
165	0x3dbaa2a3	0.09113052
166	0x3e7e4220	0.24829912
167	0x3ded1080	0.11575413
168	0x3e3c4e21	0.18389179
169	0xbda4625b	-0.08026572
170	0x3e194ad6	0.14969954
171	0x3d06d65e	0.03291928
172	0xbdbaaaf0	-0.09114635
173	0x3da2be56	0.0794646
174	0xbe80e884	-0.25177395
175	0x3daa66a7	0.08320361
176	0xbd73ec7d	-0.059551705
177	0xbe8773f9	-0.26455668
178	0x3de38aba	0.11110444
179	0xbde60e11	-0.11233152
180	0xbe8da3b5	-0.2766396
181	0x3e410d8b	0.18852822
182	0xbe428517	-0.18996082
183	0xbe824bfb	-0.25448593
184	0xbe30b988	-0.17258275
185	0xbe22b10c	-0.1588785
186	0x3e17c938	0.14822853
187	0xbc83fb8f	-0.016111163
188	0xbe006e94	-0.12542182
189	0xbda8ec03	-0.08248141
190	0xbe256742	-0.16152671
191	0x3e35e097	0.17761455
192	0xbc9c1043	-0.019050723
193	0x3d11ddc0	0.035611868
194	0xbe35489d	-0.17703481
195	0x3e26c74c	0.16286963
196	0xbdf7a314	-0.120916516
197	0x3dff9bb0	0.12480867
198	0x3e6a4958	0.22879541
199	0xbdf6dbfa	-0.12053676
200	0xbd75897d	-0.059945572
201	0xbe2a67c0	-0.1664114
202	0x3e1d9814	0.15390044
203	0xbe9271df	-0.28602502
204	0x3e380e85	0.17974289
205	0xbe225d2c	-0.15855855
206	0x3e0664e9	0.13124432
207	0xbe483067	-0.19549714
208	0xbd3bb8de	-0.0458306
209	0x3cf7530a	0.030190963
210	0xbe66f0eb	-0.2255284
211	0xbdc79aa5	-0.09746293
212	0x3e247ced	0.1606328
213	0xbe526d64	-0.20549542
214	0xbe4b9ca2	-0.1988397
215	0xbdee5dc5	-0.11638979
216	0x3e1f0ccb	0.15532224
217	0xbd729c62	-0.05923117
218	0x3e37a8c4	0.17935473
219	0xbe5ad614	-0.21370727
220	0xbce07d28	-0.02740343
221	0x3de327cc	0.11091575
222	0x3e2ca572	0.16859987
223	0xbe818603	-0.25297555
224	0xbdb6be5f	-0.08923029
225	0x3e07bca7	0.13255559
226	0x3e6cd548	0.23128235
227	0xbe02513c	-0.12726301
228	0x3e0ab82f	0.13546823
229	0xbe91884a	-0.28424293
230	0x3e4f4e50	0.20244718
231	0xbe503093	-0.2033103
232	0x3e2c6f63	0.16839366
233	0xbd53415f	-0.051576015
234	0xbe95fc0f	-0.29293868
235	0x3e134355	0.14381154
236	0xbdfedfab	-0.12445005
237	0xbc97b717	-0.018519921
238	0x3e2d29c3	0.16910462
239	0x3e32f524	0.17476326
240	0x3d19571f	0.0374366
241	0xbe1cedeb	-0.15325134
242	0x3e0f47d2	0.13992241
243	0x3e26f084	0.16302687
244	0xbddfd8d4	-0.109300286
245	0xbe23017c	-0.15918535
246	0xbb0812d9	-0.0020763187
247	0xbe06a248	-0.13147843
248	0x3e262da7	0.16228352
249	0x3e09df88	0.13464177
250	0x3e2c957c	0.16853899
251	0xbe673800	-0.22579956
252	0xbd1da261	-0.038484935
253	0xbc8a77a5	-0.016902754
254	0xbe10691d	-0.14102598
255	0x3e12e6d2	0.14345863

arith.constant3 f4 [128, 1600]
0	0x3b0dbdfa	0.0021628127
1	0xbd977e24	-0.07397106
2	0xbd6f236b	-0.058383387
3	0x3c8cd895	0.017193118
4	0x3d5f8f83	0.054580223
5	0x3cd29a43	0.025708323
6	0x3c49e596	0.012322804
7	0xbd3e7660	-0.04649961
8	0xb904ad87	-0.00012653145
9	0xbcb9d1e5	-0.022683093
10	0xbc8c24ae	-0.017107334
11	0xbc90b991	-0.01766661
12	0xbd5dfbf7	-0.05419537
13	0xbd333844	-0.04375483
14	0xbd6fc6e1	-0.058539275
15	0xbc38474b	-0.011247466
16	0x3bec306f	0.007207922
17	0xbd7ae53a	-0.061253764
18	0x3da313ba	0.07962747
19	0xbb7f1b4c	-0.0038926182
20	0xbd93fd94	-0.072261006
21	0xbd0aa6ea	-0.033850588
22	0x3cc94068	0.024566844
23	0x3d29d285	0.041460533
24	0x3ce39088	0.027778879
25	0xbd85097e	-0.06495951
26	0x3ddd6a82	0.108113304
27	0xbd7ebfb8	-0.062194556
28	0x3db42a0c	0.08797082
29	0xbd47db51	-0.04879314
30	0xbd966fab	-0.07345518
31	0x3dc32000	0.09527588
32	0x3ce19525	0.027536938
33	0x3de10e13	0.109890126
34	0xbdc46ed4	-0.09591451
35	0x3c997812	0.018734012
36	0xbcab85a6	-0.020937752
37	0xbd84c7ab	-0.06483396
38	0xba17bc7f	-0.0005788281
39	0xbd8cbf61	-0.0687244
40	0x3db61665	0.0889099
41	0x3d052928	0.032509953
42	0xbd0ca005	-0.034332294
43	0x3c6ee1c2	0.014580192
44	0xbcefa83d	-0.029255027
45	0xbd9b8d5c	-0.075953215
46	0xbb904d26	-0.004403728
47	0x3c12b1ca	0.008953521
48	0x3be21baa	0.0069002705
49	0xbc00b008	-0.007854469
50	0xbd0b2f50	-0.033980668
51	0xbb8fcabf	-0.004388183
52	0xbd98ce50	-0.07461226
53	0xbd8d144a	-0.068886355
54	0xbd81884d	-0.063248254
55	0xbd650aef	-0.05591863
56	0xbdd68749	-0.10475022
57	0xbd98d5ad	-0.074626304
58	0x3cd70cc5	0.026251206
59	0x3d40a5d0	0.04703313
60	0xbd8037f1	-0.0626067
61	0x3c4ee5f8	0.012628071
62	0xbd1fafec	-0.03898613
63	0xbd579a23	-0.05263723
64	0xbce8f52d	-0.028437221
65	0xbcadc3c8	-0.02121152
66	0xbd6066cc	-0.054785535
67	0xbc2ea5d5	-0.010659655
68	0x3deaa2eb	0.114568554
69	0x3d046211	0.032320086
70	0xbc181468	-0.009282209
71	0x3c94dae3	0.01817078
72	0xbd7c3d5a	-0.061581947
73	0x38c779ae	9.511724e-05
74	0x3c8d5129	0.017250614
75	0xbca67269	-0.020318227
76	0xbd691611	-0.05690581
77	0xbcade90e	-0.021229293
78	0xbd8988ee	-0.067155704
79	0xbcc9c7f0	-0.02463147
80	0x3c41126c	0.011784177
81	0xbd91ecd6	-0.07125251
82	0x3c959be4	0.018262811
83	0xbd3e4c06	-0.04645922
84	0xbd836a5d	-0.064167716
85	0xbd827d35	-0.063715376
86	0xbb3d5aaf	-0.0028893163
87	0x3c565bec	0.013083439
88	0x3d22780b	0.039665263
89	0x3cf8c336	0.030366521
90	0xbd2953ee	-0.041339807
91	0xbd51e458	-0.051243156
92	0xbcc5f4d9	-0.024164604
93	0xbd420e81	-0.047377113
94	0x3d7961dc	0.06088434
95	0x3c1e58a7	0.009664691
96	0x3bbdbfc4	0.0057906825
97	0x3caef7f5	0.02135847
98	0xbc65d4d6	-0.014027795
99	0x3c87e6c4	0.01658953
100	0xbcb424f2	-0.021990273
101	0xbd7bbcb9	-0.061459277
102	0xbbeffffa	-0.007324216
103	0xbaedef80	-0.0018153042
104	0xbdbabb02	-0.091177
105	0xbd23548c	-0.039875552
106	0x3c91a936	0.017780881
107	0xbdd04058	-0.101685226
108	0xbc5bf2be	-0.0134245735
109	0xbc222538	-0.009896569
110	0x3d384e50	0.04499656
111	0xbb411819	-0.0029463826
112	0xbd56bf51	-0.052428547
113	0xbc6bd10b	-0.014393101
114	0xbc8a4b4d	-0.01688161
115	0xbd9ae449	-0.07563073
116	0xbd2d6ca4	-0.042339936
117	0x3cc2fef8	0.02380322
118	0xbd8898e6	-0.06669788
119	0xbd6dc5b1	-0.05804986
120	0xbd9fb570	-0.07798278
121	0xbd906988	-0.070513785
122	0xbd5ac59b	-0.053411108
123	0xbc77588f	-0.015096798
124	0x3d1589a6	0.036508225
125	0xbd051313	-0.032488894
126	0xbc9f5eed	-0.019454444
127	0x3cfbc3a6	0.03073294
128	0x3a82ebf7	0.0009988536
129	0x3c5ab8a4	0.013349686
130	0xbd9ebf5c	-0.07751343
131	0xbd37eff7	-0.044906583
132	0x3b1a83c5	0.0023577076
133	0xbc5a9185	-0.013340359
134	0xbd5518df	-0.052025672
135	0xbd803f57	-0.06262081
136	0x3ce10bbb	0.027471414
137	0x3c27a016	0.010231039
138	0x3d1e5a84	0.03866054
139	0x3a0dbe21	0.00054070546
140	0x3c0efde6	0.008727526
141	0xbcfad66e	-0.030619826
142	0x3d3058cc	0.043053433
143	0xbdef960a	-0.116985396
144	0x3ce46ee1	0.027884902
145	0x3d0d41a1	0.034486417
146	0xbcc359ad	-0.023846472
147	0xbd00ff90	-0.031493723
148	0xbd719279	-0.058977578
149	0xbd8a787f	-0.06761264
150	0x3c8f3346	0.017480504
151	0x3d29a720	0.04141915
152	0xbc355fdc	-0.011070218
153	0xbc2baf4c	-0.010478806
154	0x3d2c0462	0.041996367
155	0xbcc89a0a	-0.024487514
156	0x3d4a7995	0.049432356
157	0x3d11a241	0.035555128
158	0xbbf23c11	-0.0073924144
159	0x3d12f9ab	0.035882633
160	0x3ce9ee96	0.02855615
161	0xbd85e99b	-0.06538697
162	0xbda7f682	-0.082013145
163	0x3d6bc98d	0.05756526
164	0x3d2c8c3e	0.042125933
165	0xbd75dc9e	-0.06002485
166	0x3aa56673	0.0012619033
167	0x3d8b8f26	0.06814413
168	0xbd9dd9a7	-0.077075295
169	0xbd834587	-0.06409746
170	0x3c7fa95a	0.015604341
171	0xbc6eb033	-0.014568376
172	0xbd899503	-0.06717875
173	0x3c5bba7c	0.013411161
174	0x3d118a3f	0.035532232
175	0x3c876b1e	0.01653057
176	0xbd4ab902	-0.049492843
177	0xbb24062d	-0.0025028095
178	0xbcd4ce3e	-0.02597725
179	0xbd752923	-0.059853684
180	0x3d64fe72	0.05590672
181	0xbd41136e	-0.04713767
182	0xbade095d	-0.0016940046
183	0xbd662d64	-0.05619563
184	0xbd5718c2	-0.052513845
185	0x3cd83d49	0.02639641
186	0xbcf54851	-0.02994171
187	0xbd2199ff	-0.039453503
188	0xbc6e7bf1	-0.014555917
189	0x3d2d6d8d	0.042340804
190	0xbb03b730	-0.0020098202
191	0x3c9ac472	0.0188925
192	0xbc93b3e3	-0.018030113
193	0xbd648f44	-0.05580069
194	0x3cc8bb00	0.024503231
195	0xbd6168e9	-0.05503169
196	0xbc7554cd	-0.014973831
197	0xbb64bf04	-0.0034903893
198	0xbd6b388c	-0.057426974
199	0x3b5cedbb	0.0033711034
200	0xbcbcafbc	-0.023033015
201	0x3cca4854	0.024692692
202	0x3d87554a	0.066080645
203	0x3d6a560a	0.05721096
204	0x3beb3651	0.007178106
205	0x3d3fc557	0.046819057
206	0xbc171a93	-0.009222644
207	0xbd8e6c01	-0.06954194
208	0x3c25b870	0.010114774
209	0x3c05651a	0.00814178
210	0xbcc8bd53	-0.02450434
211	0x3b573f6e	0.0032844204
212	0x3d43fb6d	0.0478472
213	0xbd564c6e	-0.052318983
214	0xbd16c52b	-0.036809128
215	0xbd2318ec	-0.03981869
216	0x3c8d7db8	0.017271861
217	0xbcbdea00	-0.023182869
218	0xbbda7a06	-0.0066673784
219	0xbce44c66	-0.02786846
220	0xbd7966cb	-0.060889047
221	0x3d420307	0.04736617
222	0x3d73b515	0.059498865
223	0xbd3cc3d4	-0.046085194
224	0xbcd486c6	-0.025943171
225	0xbd1206eb	-0.03565113
226	0xbd993bdc	-0.074821204
227	0xbc8d041e	-0.017213877
228	0xbd1e3917	-0.038628664
229	0x3d1c7d8a	0.03820566
230	0x3beddd78	0.007259067
231	0xbc1abbea	-0.009444216
232	0x3c5381bf	0.012909352
233	0x3accc31f	0.0015622115
234	0x3c3fc7ff	0.011705398
235	0x3cc3381a	0.023830462
236	0xbc214d22	-0.00984505
237	0x3be88f2d	0.007097146
238	0xbcc9becd	-0.024627114
239	0x3d707395	0.058703978
240	0xbd8c6986	-0.068560645
241	0xbd4b2346	-0.049594186
242	0xbd9c45f6	-0.076305315
243	0xbc8015b8	-0.015635356
244	0xbbf50049	-0.0074768406
245	0xbd8dadcc	-0.06917915
246	0x3d5d9069	0.0540928
247	0xbc89e93a	-0.016834844
248	0x3c4f335f	0.012646525
249	0x3d2847b1	0.041083995
250	0x3cccc41d	0.024995858
251	0xbd3de911	-0.046364848
252	0x3cf817f2	0.030284856
253	0x3c6918cc	0.014227103
254	0x3d3dbcff	0.04632282
255	0xbd46b6f9	-0.04851434

arith.constant4 f4 [128]
0	0xbbb4aa72	-0.0055134827
1	0xbbe42df1	-0.0069634845
2	0xbc04cff6	-0.008106222
3	0xbb882ea2	-0.0041559497
4	0xbbd21382	-0.006411017
5	0xbc00d6e8	-0.007863738
6	0xbc0d451f	-0.008622437
7	0xbc2c0aa5	-0.010500585
8	0xbc6c9926	-0.01444081
9	0xbbeaf536	-0.0071703447
10	0x3bc79d42	0.0060917446
11	0xbc0bda39	-0.008535915
12	0x3c805cb8	0.015669212
13	0xbc5ab5ba	-0.013348991
14	0x3ba34902	0.0049830684
15	0xbbece499	-0.0072293994
16	0xbc7e3345	-0.015515153
17	0xbbd01e6d	-0.0063512833
18	0x3c530a7e	0.0128809195
19	0x3c1ecc71	0.009692297
20	0xbc7d8023	-0.015472445
21	0x3b607dbe	0.0034254636
22	0x3aa72112	0.0012750945
23	0xbb6c9f72	-0.003610578
24	0x3b44c7c1	0.003002629
25	0xbc0b88d5	-0.00851651
26	0xb94e33f6	-0.00019665048
27	0xbc38fbe4	-0.011290524
28	0xbc58da3b	-0.013235624
29	0x3bc2cbc2	0.0059447
30	0xbd108246	-0.03528049
31	0x3ba510dd	0.0050374107
32	0xbbea30bf	-0.0071469243
33	0xbc080ef4	-0.008304346
34	0xbbfdfa67	-0.0077507976
35	0xbb83934d	-0.0040153624
36	0x3c845330	0.016152948
37	0xbc1aa57c	-0.009438869
38	0x3cc45603	0.023966795
39	0x3c04b90d	0.00810076
40	0x3b606593	0.003424023
41	0xbc04a83c	-0.008096751
42	0x3c3724ad	0.011178178
43	0xbbc4ba66	-0.0060036657
44	0xbc3b237f	-0.011422037
45	0xbafa2be5	-0.0019086568
46	0xbbd18a89	-0.0063946885
47	0xbc12e8b4	-0.008966614
48	0xbc71dbb3	-0.014761853
49	0xbb2ada00	-0.002606988
50	0xbba5bc18	-0.005057823
51	0xbcad6dea	-0.021170575
52	0xbc2c4d88	-0.010516532
53	0x3bee9501	0.0072809462
54	0xbc0070ea	-0.007839421
55	0xbccaeb3d	-0.024770373
56	0xbc5cb9c1	-0.013472022
57	0xbc1319cd	-0.008978319
58	0x3c50f53d	0.012753782
59	0xbbcfce67	-0.0063417437
60	0xbbfad346	-0.0076545803
61	0xbbdddcb7	-0.006770696
62	0xbbdd12ea	-0.0067466395
63	0x3bb81740	0.005618006
64	0xbc46d11d	-0.012134817
65	0x38dd29cb	0.00010545886
66	0xbc5d28bb	-0.01349848
67	0x3a3b98d4	0.0007156257
68	0xbc1867ce	-0.009302093
69	0xbcd72aba	-0.02626549
70	0x3c2aa68e	0.010415686
71	0xbc32cea1	-0.010913522
72	0xbba5e506	-0.005062702
73	0xbb95501d	-0.0045566694
74	0x3ca74070	0.020416468
75	0xbc221379	-0.009892338
76	0x3cbb603c	0.022873037
77	0xbbf613aa	-0.0075096684
78	0x3b781777	0.0037855783
79	0xbc3dd7ba	-0.011587078
80	0xbbc4aad4	-0.0060018096
81	0x3b2af4f5	0.0026085947
82	0xbc328410	-0.010895744
83	0xbcf95662	-0.030436698
84	0xbbe08977	-0.0068523246
85	0xbbaef244	-0.005338939
86	0xbbaef63e	-0.005339413
87	0x3a14cb47	0.00056760426
88	0xbbd3c696	-0.0064628823
89	0xbbda8c57	-0.006669562
90	0x3c2ffb81	0.010741116
91	0xbc2938b2	-0.010328459
92	0xbc579f4e	-0.01316054
93	0x395b827e	0.0002093408
94	0x3c03ca51	0.008043841
95	0xbc13d107	-0.009022004
96	0xbc1d6a27	-0.009607828
97	0x3c902d67	0.017599775
98	0xbc03827d	-0.008026716
99	0xbc1c6784	-0.009546164
100	0xbc5cbe6b	-0.013473134
101	0xbc99c2bd	-0.018769616
102	0x3c64b685	0.013959532
103	0xbb390628	-0.002823243
104	0x3cc409d7	0.023930473
105	0xbb869395	-0.0041069486
106	0xbc2cb597	-0.010541341
107	0x3c9d3aa2	0.019192997
108	0xbb92a7dd	-0.0044755773
109	0x3c40c1d6	0.011764964
110	0x3c3d76b1	0.011563943
111	0x3c6bfc89	0.014403471
112	0xbb3a15e0	-0.0028394386
113	0xbc4a06a7	-0.012330688
114	0x3cb370fe	0.021904465
115	0x3badc83a	0.00530341
116	0xbb602494	-0.003420149
117	0xbc9a3106	-0.018822204
118	0xbbc4af02	-0.006002308
119	0xbc0b7dd0	-0.008513883
120	0x3c227567	0.009915686
121	0x3ce7d67b	0.028300514
122	0x3c0a52e4	0.008442614
123	0xbbfc1391	-0.007692762
124	0x3bf94cd4	0.0076080356
125	0xbbd422d1	-0.006473877
126	0xbbe085b6	-0.006851877
127	0x3b8a402d	0.004219076

arith.constant5 f4 [10]
0	0xbca0f69e	-0.019648846
1	0x3d6319e3	0.05544461
2	0x3bb4eb77	0.0055212337
3	0x3ca7b5eb	0.020472487
4	0xbd3c9585	-0.04604103
5	0xbc8c85b8	-0.017153606
6	0xbdabf96f	-0.08397185
7	0xbc900643	-0.01758111
8	0x3da96ab8	0.08272308
9	0xbc4aeffd	-0.012386319

sequential_1/conv2d_1/convolution f4 [32, 3, 3, 1]
0	0x3e336903	0.17520528
1	0x3de86890	0.11348069
2	0xbe2af25e	-0.16694018
3	0x3e064413	0.13111906
4	0x37312a00	1.0559801e-05
5	0xbe38a144	-0.18030268
6	0x3e6f5bc5	0.23374851
7	0x3d6b4797	0.05744132
8	0xbe2f053d	-0.17091842
9	0x3e6cffd6	0.23144469
10	0x3e6f00b4	0.23340112
11	0x3e5546d4	0.208278
12	0x3d634dfd	0.055494297
13	0x3de0e352	0.10980858
14	0xbcc47d9f	-0.023985682
15	0x3e4f14a6	0.2022272
16	0xbd898dd6	-0.06716506
17	0xbc179cc0	-0.009253681
18	0xbc8c34ec	-0.017115079
19	0x3e88648f	0.2663922
20	0x3e69a4af	0.22816728
21	0xbe031fcb	-0.12805097
22	0x3dd25cdc	0.10271618
23	0x3d92c46e	0.07166372
24	0xbad8473a	-0.0016500719
25	0x3d9f6007	0.07781988
26	0x3e166602	0.1468735
27	0x3e16a378	0.14710796
28	0x3dd92db0	0.10604417
29	0x3ddbcdaf	0.107325904
30	0x3bccfe8f	0.0062559317
31	0x3e342765	0.17593153
32	0x3db9cc13	0.09072127
33	0xbe8c3aca	-0.27388602
34	0xbe821621	-0.25407508
35	0x3da06d1b	0.0783331
36	0x3e978460	0.29593182
37	0x3e051014	0.12994415
38	0x3dc0ec68	0.09420091
39	0x3dcec556	0.100962326
40	0xbd3d6116	-0.046235166
41	0xbe0d7555	-0.1381429
42	0x3dba8e6b	0.09109195
43	0xbe854e27	-0.26036188
44	0xbe8e7524	-0.27823746
45	0x3d308950	0.0430997
46	0x3e324263	0.17408137
47	0x3e71d93f	0.23618029
48	0x3e039faa	0.12853876
49	0xbd93c902	-0.072160736
50	0x3e3c5f27	0.18395673
51	0xbe5f717f	-0.21820639
52	0xbe084e66	-0.13311157
53	0x3c787b05	0.015166049
54	0xbe33896f	-0.17532896
55	0xbe0ae66c	-0.13564461
56	0x3c6429ce	0.013925983
57	0x3db1777e	0.086653695
58	0x3d59f0a2	0.053208
59	0x3de76c95	0.11300007
60	0x3e2601a4	0.16211563
61	0x3e37863f	0.17922305
62	0x3d88a03c	0.06671187
63	0xbaf6610a	-0.001879723
64	0x3e2298ca	0.15878597
65	0xbdcbe715	-0.09956185
66	0x3e25a64b	0.16176717
67	0x3e505fc9	0.20349039
68	0xbda36e6e	-0.07980047
69	0x3e511ffe	0.2042236
70	0xbb2a405c	-0.0025978303
71	0xbe289dc1	-0.16466428
72	0xbe5def4c	-0.21673316
73	0x3e5227eb	0.2052304
74	0x3dd48539	0.10376973
75	0xbe05ffb2	-0.13085821
76	0x3e4d53c4	0.20051485
77	0x3d9acc8b	0.07558545
78	0xbc808881	-0.01569009
79	0x3e40f84d	0.18844719
80	0xbd8790ad	-0.066193916
81	0x3e4838d4	0.19552928
82	0x3a4445d8	0.0007487214
83	0xbe6f7ac4	-0.23386675
84	0x3db63aa5	0.08897904
85	0xbd885abe	-0.06657933
86	0xbe35fb32	-0.17771605
87	0x3e611196	0.21979365
88	0x3d938e13	0.07204833
89	0xbd09a1bb	-0.033601504
90	0x3e462c9b	0.19352953
91	0x3dea88be	0.11451863
92	0x3e8280d6	0.2548892
93	0xbe0eeeb6	-0.13958248
94	0xbca77b4c	-0.020444535
95	0x3d0c2221	0.034212235
96	0xbe924c87	-0.2857401
97	0xbe3c6030	-0.18396068
98	0x3dd044aa	0.10169347
99	0x3d919624	0.07108715
100	0xbce3e6f7	-0.027820094
101	0xbe1b2360	-0.15150213
102	0x3e4a7db5	0.19774516
103	0x3e57a146	0.21057615
104	0x3ca45226	0.020058703
105	0x3e0ab8bb	0.13547032
106	0x3e29e844	0.16592509
107	0x3e0db3e2	0.13838151
108	0x3e4a67ec	0.19766206
109	0x3e7371fa	0.23773947
110	0xbde9a647	-0.11408668
111	0x3d45314e	0.048142724
112	0x3cdd4a7a	0.027013052
113	0xbe80beb7	-0.25145504
114	0x3d67377a	0.05644939
115	0xbe17b502	-0.14815143
116	0xbe80766a	-0.25090343
117	0x3cefa41a	0.029253054
118	0x3e3f362e	0.18673012
119	0x3e2ed44f	0.17073177
120	0x3d814865	0.06312636
121	0x3d7a3904	0.06108953
122	0xbba8e949	-0.005154763
123	0xbd9f4cad	-0.077782966
124	0x3e0cb957	0.13742577
125	0x3e092d40	0.13396168
126	0x3d955d48	0.072931826
127	0x3e6b1c0e	0.22959921
128	0xbdb2f45d	-0.08738015
129	0x3d4f4c03	0.0506096
130	0x3d873450	0.06601775
131	0xbdcdbd90	-0.10045922
132	0x3d44c015	0.048034746
133	0x3e3dc51f	0.18532227
134	0xbde26de1	-0.11056114
135	0x3dbcd7d1	0.09220851
136	0x3e0e3909	0.13888945
137	0x3e64190d	0.22275181
138	0xbd805011	-0.062652715
139	0x3e6bd6de	0.23031184
140	0x3e3ae62e	0.18251869
141	0xbbe233a6	-0.0069031296
142	0xbcb66ad8	-0.022267744
143	0x3e55efab	0.20892207
144	0x3d775e7a	0.060392834
145	0x3b09ddae	0.0021036672
146	0x3e609a09	0.2193376
147	0xbe16387a	-0.14669982
148	0x3e0bc09b	0.13647692
149	0x3e258cc9	0.16166987
150	0xbe622039	-0.22082604
151	0xbdb620eb	-0.08892997
152	0x3df65287	0.120274596
153	0x3dfa6a3e	0.12227295
154	0xbd20b2b9	-0.039232943
155	0x3d3f97ba	0.046775557
156	0x3df3ca96	0.119038746
157	0x3e535cd0	0.20640874
158	0x3e3f0197	0.1865295
159	0x3dd6d08e	0.104889974
160	0x3dc1c562	0.09461476
161	0x3df3b704	0.11900142
162	0x3e3953d8	0.1809839
163	0x3e410f9b	0.1885361
164	0x3e349560	0.17635107
165	0x3e3b5dc9	0.18297495
166	0x3e5124b3	0.20424156
167	0x3cb57c61	0.022154035
168	0xbd6c611f	-0.05770981
169	0x3e1c7a7e	0.15281102
170	0xbdbd9fac	-0.092589706
171	0xbdf944ca	-0.121713236
172	0x3dc6d71c	0.097089976
173	0x3e59b207	0.21259318
174	0xbe58a104	-0.21155173
175	0x3d0af0c4	0.03392102
176	0x3da42f8e	0.08016883
177	0xbe73cbfd	-0.23808284
178	0x3e0a2594	0.13490897
179	0x3e0d3e25	0.13793238
180	0x3d18d3e2	0.037311442
181	0x3d05366d	0.032522608
182	0x3e5b7bf9	0.2143401
183	0x3d10d63e	0.035360567
184	0x3e8158a0	0.25262928
185	0x3e5e05dc	0.21681923
186	0xbdab10b5	-0.08352796
187	0x3c810771	0.015750619
188	0x3dcf8607	0.101329856
189	0x3e13475d	0.14382692
190	0x3d90ff1e	0.0707991
191	0xbe1b41fe	-0.15161893
192	0x3c6504fb	0.013978238
193	0x3d963d8f	0.0733596
194	0x3db57fc8	0.08862263
195	0x3e298bd5	0.16557248
196	0x3e3a18fd	0.18173595
197	0x3dbabe70	0.09118354
198	0x3dd4afc2	0.10385086
199	0xbd72c836	-0.059272967
200	0xbde08253	-0.10962357
201	0x3a3867b4	0.0007034496
202	0x3d952424	0.07282284
203	0x3c951321	0.018197598
204	0x3e5eb433	0.21748428
205	0x3e59854b	0.21242253
206	0x3e3ffd83	0.18749051
207	0x3e095750	0.13412213
208	0xbd995302	-0.074865356
209	0xbe3050fc	-0.17218393
210	0x3e3aa8fe	0.18228528
211	0x3e2d1a9f	0.16904686
212	0xbe94b490	-0.29044008
213	0x3e117fc4	0.14208895
214	0xbd1ba44b	-0.03799848
215	0xbdd9a321	-0.106268175
216	0xbd15b712	-0.036551543
217	0xbe4fd9aa	-0.20297876
218	0xbe5369dc	-0.20645851
219	0xbe2f6ec5	-0.17132099
220	0xbe108513	-0.14113264
221	0x3bcae41c	0.0061917435
222	0xbde8df98	-0.11370772
223	0xbcd0c327	-0.02548368
224	0x3e71bf17	0.23608051
225	0x3bb809ae	0.0056163883
226	0x3e242974	0.16031438
227	0x3e26ccb8	0.16289032
228	0x3e022499	0.12709273
229	0xbd1f8db8	-0.038953513
230	0x3e3b4a75	0.18290122
231	0xbe217faa	-0.15771356
232	0xbe7646f8	-0.2405051
233	0xbd8ef9dd	-0.069812514
234	0x3d28a7a0	0.041175485
235	0xbd81d202	-0.06338884
236	0xbeaa72de	-0.33290762
237	0x3d4b9632	0.049703784
238	0x3e30816e	0.17236874
239	0xbe5370f9	-0.20648564
240	0x3e948e7e	0.29014963
241	0x3d80a4d6	0.0628144
242	0xbc68d03a	-0.014209801
243	0x3e3284e9	0.17433514
244	0xbdf7844b	-0.1208578
245	0xbe86e628	-0.2634747
246	0x3da348c7	0.079728656
247	0x3db465d2	0.08808483
248	0xbe1a59e0	-0.15073347
249	0x3e2abb0c	0.16672915
250	0xbbbc776c	-0.005751541
251	0xbe3f2144	-0.18665034
252	0x3e26b263	0.16278987
253	0xbcf4f628	-0.029902533
254	0xbd56e4c8	-0.052464277
255	0x3e5b4dbe	0.21416375

sequential_1/conv2d_1/Relu;sequential_1/conv2d_1/BiasAdd;sequential_1/conv2d_1/convolution; f4 [32]
0	0xba76f47a	-0.0009420585
1	0xbccd2683	-0.025042778
2	0xbbf85de5	-0.0075795525
3	0xbc67bf2d	-0.014144701
4	0x3d3e2543	0.046422254
5	0xbcc54ddd	-0.02408498
6	0xbc85299c	-0.016255192
7	0xbb698a75	-0.0035635505
8	0xbcaf347d	-0.021387333
9	0xbaa2f243	-0.0012431819
10	0x3d2e3f59	0.04254088
11	0xbca93aab	-0.020657858
12	0x3df4d01d	0.11953757
13	0xbce82d91	-0.02834204
14	0xbb4d399b	-0.0031314853
15	0xbc8bf0cc	-0.017082594
16	0xbb30f0c2	-0.0026998972
17	0xbd09ab44	-0.033610597
18	0xbcd8a5ea	-0.026446301
19	0xbb0ae7ab	-0.0021195214
20	0xbba03466	-0.004889059
21	0xbcdd47a4	-0.0270117
22	0xbca2b4c3	-0.019861585
23	0x3cf1264f	0.029437212
24	0x3e300048	0.17187607
25	0x3aecc494	0.0018063956
26	0xbb882e42	-0.004155905
27	0x3d14cd96	0.036328875
28	0xbc167ca2	-0.009184988
29	0xbb3508a5	-0.002762356
30	0xbd0895e5	-0.033346076
31	0x3d3f5698	0.04671344
